joy.ts.pt (torch, 774755 bytes, 8 tensors)

weight f4 [512, 48]
000000 b1 e5 63 3d 52 bb b3 3e bb 8b c2 3d 8a a0 ec bd
       0.055638973 0.35103852 0.09499308 -0.11554058
000010 22 6e 6f 3e 8e e0 04 bf f3 10 a2 3d 0e 6e fd 3d
       0.23381856 -0.51905143 0.07913389 0.12374507
000020 7c 96 58 3d 16 18 b3 3c 5e 54 36 3d f2 19 a7 3d
       0.052877888 0.021862071 0.044514053 0.081592456
000030 ef 7a 93 be a9 ac c2 3d 3e ca 5a 3d 13 51 71 3d
       -0.28804728 0.095055886 0.05341553 0.05891521
000040 9e 87 cf 3d 5c 9a da bc 57 ef 50 3d b6 93 e1 bd
       0.10133289 -0.026684932 0.051009502 -0.11014502
000050 88 26 9f bd 18 bb 57 3e 0c 6f 92 3d 60 3b 47 3c
       -0.07771021 0.21067464 0.07150087 0.012160152
000060 1a 85 da bd 11 4d bd 3b d6 b8 c0 3e 89 92 80 be
       -0.10669918 0.0057770093 0.3764102 -0.25111797
000070 ab bc 8f 3e b4 1e 1f be 3c ea 87 bb a6 cf 0e be
       0.2807363 -0.15539056 -0.004147796 -0.13946399
000080 89 4c 36 be b9 a6 cc 3d aa 3e 51 3d 49 c5 b8 bd
       -0.17802633 0.09992737 0.05108515 -0.09022004
000090 f0 84 f8 3d d2 d1 16 bd 80 07 34 bc 71 0b d5 bc
       0.12134731 -0.036821194 -0.010988116 -0.026006432
0000a0 7d 14 7e 3c 88 97 9d 3d a3 54 e1 bc f5 69 8f bd
       0.0155078145 0.07694918 -0.027506178 -0.070026316
0000b0 65 26 47 3d 04 37 ec bd 5b 4d 0e be 82 51 8b 3c
       0.0486206 -0.11533931 -0.13896696 0.01700664
0000c0 86 98 0d be 50 5b 89 be 88 9f 0e 3e 6f 0d 92 3d
       -0.13827714 -0.26827478 0.13928044 0.071314685
0000d0 9d d5 ad be e2 6a 23 3f 4b a1 de bc 73 58 8e be
       -0.33952036 0.63834965 -0.02717652 -0.27801856
0000e0 ac 00 c4 3d 2e e8 23 bc b1 9a 88 3d b8 bd a1 3c
       0.09570441 -0.010004086 0.0667013 0.019743785
0000f0 8f be b9 bd 0b 27 6c bd a6 b3 a1 3d 42 99 dc bd
       -0.09069549 -0.05765442 0.07895593 -0.10771419
000100 98 ea e3 bd dd 4e 59 bd 24 a1 16 be 02 dd a8 3d
       -0.111287296 -0.053053726 -0.14709908 0.08245279
000110 95 87 3e 3d 0f 84 27 be 49 62 b8 bc d3 c8 0e 3e
       0.04651602 -0.1635897 -0.022507804 0.13943796
000120 1e b4 57 be 9f 92 21 be 56 f0 ec 3a f6 53 77 3d
       -0.21064803 -0.15778588 0.0018076997 0.060382806
000130 05 40 fa bb b2 f4 2d 3d d2 37 ce bc 7c 1e 5c be
       -0.0076370263 0.042469688 -0.025173102 -0.21496004
000140 a2 e9 2f bc d0 2a 98 bd bf 19 90 3e 9d 57 b0 3d
       -0.010736855 -0.07430041 0.28144643 0.08610461
000150 08 2f 8f 3d 8d c6 1d bc 12 a2 20 3d 7a 39 e8 3d
       0.069913924 -0.009629858 0.039217062 0.11339088
000160 4d de b2 3d 4a fd 85 3d f8 ba dc bd 6b eb bb bd
       0.08733807 0.06542452 -0.10777849 -0.09175762
000170 40 be 20 bd f9 3e 73 3d ec 4d aa 3d 43 40 2e 3d
       -0.039243937 0.059386227 0.08315644 0.042541754
000180 9b cc f0 3d ae 4f f3 3d 1f 15 aa 3d bd d8 03 be
       0.117577754 0.11880432 0.0830481 -0.12875648
000190 06 c7 81 3d 2a 5a 12 3f e7 aa 38 be 9b d6 85 3e
       0.06336789 0.5716883 -0.18033944 0.26140293
0001a0 e3 a2 a9 3d 77 41 7d bd c9 e1 06 3d 4d 1c bf bc
       0.08283021 -0.06183001 0.03293017 -0.023328925
0001b0 23 30 55 3e 45 45 53 be 7e da 80 be d6 79 a0 bd
       0.20819144 -0.20631893 -0.25166696 -0.07835738
0001c0 a1 a6 8d bd e6 7c 23 3e 27 73 3c bd 31 5d 14 be
       -0.069165476 0.15965614 -0.046008255 -0.14488675
0001d0 8e 16 8b be a2 6b 50 be 16 3c af bd 89 20 8d bd
       -0.27165645 -0.20353559 -0.08556382 -0.06890971
0001e0 0e e5 b2 3c d3 4b 1c bf 07 63 6b be db e3 94 3e
       0.021837737 -0.610532 -0.22986995 0.2908009
0001f0 29 2d 78 bd b4 d7 98 3e 92 87 2c be c5 b6 f2 3d
       -0.060589943 0.29852068 -0.16848591 0.11851267
000200 1a 65 c9 3b c3 89 0a 3e d8 09 08 3f 63 ac e6 3d
       0.0061460854 0.13529114 0.5314002 0.11263349
000210 07 87 9a 3d 89 16 93 bc 9d a7 95 bd 8e 41 6d 3d
       0.07545286 -0.017955082 -0.0730736 0.057923846
000220 6c b1 73 bb 08 74 48 bd 48 27 73 bd 0a 3f e7 3d
       -0.003718461 -0.04893878 -0.059363633 0.112913206
000230 ae c6 9f bc 46 fd e2 3c 0b 04 04 3e 43 13 28 3d
       -0.019503918 0.02770866 0.12892167 0.041033994
000240 2d 35 91 bc ae f3 d0 be 25 71 cd bd ce 88 24 be
       -0.017725552 -0.40810913 -0.10031346 -0.16067812
000250 97 57 8d be 6f 7b 98 3e 46 8b 52 be 84 ff 2d 3e
       -0.27605888 0.29781672 -0.20560941 0.16992003
000260 7a c2 66 bd 31 42 de bc 5b d6 60 3b 31 cf 34 bd
       -0.05633781 -0.027131172 0.0034307453 -0.044142906
000270 e0 46 71 3e 39 c3 b9 bd b2 43 06 3e 53 78 77 be
       0.23562193 -0.09070439 0.13111761 -0.24166994
000280 b8 b8 06 be e1 89 7f bd 64 b1 26 be 12 ef 04 3e
       -0.13156402 -0.06238735 -0.16278607 0.12981823
000290 4f e9 23 3e d1 dc cf bd 8b 20 34 be 6b 14 50 3d
       0.16006969 -0.10149539 -0.17590539 0.050800722
0002a0 fd 06 d9 3e ae 79 0f be 1a 5b f3 bd 60 e3 be 3d
       0.42388144 -0.14011261 -0.118826106 0.09320712
0002b0 00 20 bf be 18 7a bd 3e db 93 92 be 00 cb 49 3e
       -0.37329102 0.37007213 -0.2862843 0.19706345
0002c0 78 eb f8 3d 74 29 21 3e 19 73 07 3e 14 f3 88 bd
       0.12154287 0.1573847 0.132275 -0.066869885
0002d0 51 aa ec bd f9 69 f9 bc 25 1c b2 bd 8c 9c 07 bd
       -0.11555923 -0.03044604 -0.086967744 -0.03310828
0002e0 22 38 a9 3d 32 bd 82 3d 49 4e 0c 3c 3c 41 8e 3d
       0.082626596 0.063837424 0.0085635865 0.06946036
0002f0 a2 d0 28 bd d9 84 a4 3d 64 7a 82 bd 55 3b fd bd
       -0.041214593 0.08033151 -0.063710004 -0.12364832
000300 05 15 22 be 7c 15 93 be 68 7a 28 3e b5 42 1b 3e
       -0.15828331 -0.2872733 0.16452944 0.15162165
000310 fb 02 9e bc 0c 82 3e 3f 59 ab ab 3d 5f 69 ca be
       -0.01928853 0.74417186 0.08382291 -0.39533517
000320 79 71 7e bd 0a 83 55 bd ef 7b 28 bd fd 10 d9 bc
       -0.062119935 -0.05212692 -0.041133817 -0.026497358
000330 d1 4e 2b 3e f5 61 7e 3b b0 7b 11 be 3b 11 19 3e
       0.16729285 0.003881571 -0.1420734 0.14947979
000340 af 57 19 3d de c8 56 3d 4d 34 e4 bd 03 b0 c5 bd
       0.037437137 0.052437656 -0.11142788 -0.09652712
000350 34 44 81 3e 34 92 04 3e 37 96 06 be 7d ae 21 3e
       0.25247347 0.12946397 -0.1314324 0.15789218
000360 97 56 cc bd 93 d6 95 be c2 f5 95 3d 58 16 d5 3e
       -0.09977453 -0.2926527 0.07322265 0.4161861
000370 22 20 52 be b4 ac 58 3d 44 33 60 3c 14 78 9d bd
       -0.2052007 0.052899078 0.013684098 -0.07688919
000380 14 6b 62 3e 64 de 97 3d 9a dc af bc bf e5 f4 bc
       0.2211116 0.074154645 -0.021467496 -0.029894708
000390 21 91 3a bd 6b bd 08 3e 8b c7 d2 3d fe 16 7e 3d
       -0.045548562 0.13353507 0.10291966 0.062033646
0003a0 83 01 b7 bc 75 00 bd 3d 58 e5 04 3e 3b a3 b2 3d
       -0.022339588 0.09228603 0.12978113 0.0872254
0003b0 2a 37 55 bd 7f ee 9d bd ed 0b bd bd 4f ac c7 bd
       -0.05205456 -0.07711505 -0.0923079 -0.09749662
0003c0 49 4d 17 3e ed 2c 54 be b6 a0 29 3d 58 99 f1 bb
       0.14775576 -0.20720263 0.04141303 -0.0073730163
0003d0 d1 7d e3 bd 0e e8 32 3f 35 f5 b0 bc 50 2d 1f be
       -0.11107982 0.6988534 -0.021601299 -0.15544629
0003e0 48 b5 1f bd f4 98 57 bd 64 31 13 be 46 bf a1 3c
       -0.038991243 -0.0526361 -0.1437431 0.019744527
0003f0 17 97 4b 3c 04 e0 0b 3e c5 e2 88 3c b5 dd c4 bc
       0.012426159 0.13659674 0.016709695 -0.0240315

bias f4 [512]
000000 df 9c 05 bc 21 0a 3e 3e 47 fb 2e 3d 5e 6b 2e 3c
       -0.008155077 0.18558551 0.042720105 0.0106457155
000010 1a 06 d5 3d 0a 8e 6a bb 25 fb 6e bd 32 6d 5d bd
       0.104015544 -0.0035790228 -0.05834498 -0.054059215
000020 c0 78 de bc 85 45 1a bd bc a1 2d bd 2b 49 8e bd
       -0.027157187 -0.037663955 -0.04239057 -0.069475494
000030 8d 69 72 3c d3 9a 07 3e 17 b7 b4 bd ae 10 dc bd
       0.014795673 0.13242655 -0.08823984 -0.10745369
000040 77 88 c4 3c 77 bc 6e 3d 1f 49 9f bc d2 82 5c 3d
       0.023990853 0.058285203 -0.019444047 0.053835697
000050 7a 7f 50 3d 5a 39 94 3d bd e2 d2 bc 75 af f9 3c
       0.05090282 0.072375014 -0.025742883 0.030479172
000060 3b 85 c3 3c e7 a6 0b 3e cc af 4c 3d 61 fb bb 3d
       0.02386724 0.13637887 0.04997234 0.09178806
000070 89 a0 f2 bc f5 03 43 3d 4c 26 10 be 45 db a8 3d
       -0.029617565 0.047611196 -0.14077109 0.08244947
000080 8e b4 39 bd 91 57 c4 3d 9a 63 c9 3d b0 f4 34 3d
       -0.045338206 0.095870145 0.098334506 0.044178665
000090 61 1c 0a 3e 06 4b 48 3b 7e 1a 1b bd 13 48 59 3d
       0.13487388 0.0030562296 -0.03786706 0.05304725
0000a0 86 53 81 bd 1e d5 fe bd 42 d5 01 3d 13 90 de bd
       -0.06314759 -0.12442993 0.03169752 -0.10867324
0000b0 87 ff bb bd 4d 8f 96 3d 4b ae 2c 3d f3 2e 86 3d
       -0.09179597 0.07351551 0.042158406 0.065519236
0000c0 02 03 00 bd 80 75 01 be 3c c1 bc 3d 20 b6 89 3d
       -0.03125287 -0.12642479 0.09216544 0.06724191
0000d0 3d 1c e2 3a f3 c8 28 bd 18 28 7e 3d 48 62 9b bd
       0.0017250847 -0.041207265 0.062049955 -0.07587105
0000e0 32 5f 09 be 3b f8 be bd 4b a9 08 bd 59 85 ca bc
       -0.1341522 -0.0932469 -0.033364575 -0.024721788
0000f0 36 8f 54 3d 73 17 8c bd 02 5d d7 bd 82 57 3a bc
       0.05189439 -0.0684041 -0.10515787 -0.011373403
000100 48 f8 70 bc 25 47 6f 3d da 8d 97 3b a7 28 70 3d
       -0.014707632 0.058417458 0.0046250643 0.05863252
000110 68 78 d3 bc 4c 26 2f 3d 46 81 99 bd b7 1c 92 3d
       -0.02581425 0.042761132 -0.0749536 0.07134383
000120 15 82 9c 3c 24 9c 9f 3d f1 97 4b bc ef 86 23 3c
       0.019104997 0.07793453 -0.012426362 0.009980901
000130 bd 04 05 be b5 51 f5 3d 87 fd c4 3d aa 5f f8 bc
       -0.12990089 0.11978475 0.09618669 -0.030319054
000140 bf f0 d3 bb ff bf bf 3d d1 dc 13 be b8 3a 52 bd
       -0.006467908 0.09362792 -0.14439704 -0.05132553
000150 82 62 26 3c e5 07 bd bc 90 8b 4c 3c 61 b5 f6 bc
       0.010155322 -0.023075053 0.012484446 -0.030115785
000160 f1 21 ba 3d 3c 3f 06 3d b6 35 3f bd a9 af a0 3d
       0.09088505 0.03277515 -0.046682082 0.078460045
000170 a3 73 66 3d 13 8c 53 bc 31 02 40 3d a4 6e f4 3b
       0.056262624 -0.012911814 0.04687709 0.0074594785
000180 ee ef d5 3c 39 c3 5b bd 20 7d 1c bd 33 45 0b 3e
       0.026115384 -0.053652976 -0.038205266 0.13600616
000190 c1 32 19 3d eb e4 00 bd 77 5f 6a bd 4b 85 c8 bc
       0.03740192 -0.031468313 -0.05721995 -0.024477622
0001a0 d5 87 07 3d 54 bb 1e bd 83 09 88 3d 26 33 67 bc
       0.033088524 -0.03875287 0.06642439 -0.014111316
0001b0 f2 43 bf bd 2b 77 6a bd 44 a4 8e 3c 09 6c 48 bd
       -0.093391314 -0.057242554 0.017412312 -0.048931155
0001c0 0f c3 b7 3c e8 db 15 3d c0 95 c3 3c b4 34 20 3e
       0.022431878 0.036586672 0.023875117 0.15645105
0001d0 53 de 01 be f1 ad 2c 3d 73 f2 49 3d ed 21 0e 3d
       -0.12682466 0.04215807 0.049303483 0.034700323
0001e0 67 81 2a bd 9d 6c c0 3d 5a ee 23 3d 62 4c f0 bc
       -0.041627314 0.09395716 0.04002223 -0.029333297
0001f0 ea 84 d6 bc ee d1 2c bd 05 48 86 3d 5e 43 eb 3d
       -0.026186425 -0.042192392 0.065567054 0.11487459
000200 1d 34 4d bd c8 53 67 3d cd 9c 83 3c 9f 8e a0 bd
       -0.050098527 0.056476384 0.01606598 -0.07839703
000210 5c d1 18 be 36 05 17 be fe 69 c7 3d 32 6f 5e bd
       -0.14923614 -0.14748082 0.09737013 -0.054305263
000220 69 7a 1d 3d c0 3a 96 3d 99 a5 92 bd 18 05 8e 3d
       0.038446818 0.073354244 -0.071604915 0.06934565
000230 0c f5 a5 3d d2 33 af 3c 71 07 26 3e 02 5f 85 bc
       0.081033796 0.021387015 0.16213776 -0.016280655
000240 30 84 3b 3d d1 67 10 bd 4e f9 1a 3c 2a 49 53 3d
       0.04578036 -0.035255257 0.009458853 0.051583447
000250 31 bf 80 3d 97 2f 7f 3d 55 a8 b3 bc 12 60 d1 3c
       0.06286467 0.062301245 -0.021930853 0.025558505
000260 67 3a 17 3d c8 46 71 bd e4 ed 89 3d ab ce ee 3d
       0.03692093 -0.058905393 0.06734827 0.116605125
000270 c3 62 5d 3d 54 f1 9a bd d5 40 72 3c ee 08 1d 3e
       0.054049265 -0.07565561 0.014785965 0.15335438
000280 ae 7d 86 3d 24 79 b4 bd e8 21 7a 3d 32 e1 ad bd
       0.0656694 -0.08812168 0.06106749 -0.08490218
000290 ea d3 79 bd fb 1c 8b 3d 64 3f 6b 3c 88 8d 16 bd
       -0.060993113 0.06792637 0.014358375 -0.03675607
0002a0 d1 23 38 bd 98 88 a3 3d d7 3e 8b bd da f0 c5 3d
       -0.044956032 0.079850376 -0.06799095 0.096650794
0002b0 dd 40 db 3d b4 e9 21 3d bc d7 da 3c 9f 82 d5 bc
       0.10705731 0.039529517 0.026714198 -0.026063262
0002c0 cf 57 e9 bc cc fc ec bb 86 56 88 bc 04 c0 4c 3d
       -0.028484253 -0.007232284 -0.01664282 0.049987808
0002d0 07 01 51 bc 21 49 d5 3c 25 45 dd 3c 9e e5 fe bd
       -0.012756593 0.026035847 0.02701051 -0.1244614
0002e0 5f 5a ad bd a3 03 b6 bd 54 51 c4 bc b4 b9 0e 3d
       -0.084645025 -0.088874124 -0.023964562 0.03484507
0002f0 bc 9a 6f 3c 2f df 20 3d 50 bc 6f 3d 0d f2 bc 3b
       0.014624294 0.039275344 0.0585292 0.0057661594
000300 bd ab cc 3c da 0c 21 bd 6d c9 37 bc 0a 8f a0 bd
       0.024984235 -0.039318897 -0.011217457 -0.078397825
000310 c1 98 09 bc 41 34 e3 bd 6d cf 23 3d 5c a3 dd 3c
       -0.008398236 -0.11093951 0.03999274 0.027055435
000320 14 f8 da bd b3 4d 63 bb d5 c8 48 bc 4d cc 6a 3c
       -0.106918484 -0.0034683764 -0.012254913 0.014330936
000330 30 8f 38 3c 13 4d 65 3b 3b 06 aa 3d 10 45 d0 bd
       0.011264607 0.0034988567 0.083019696 -0.101694226
000340 d3 09 07 be b9 87 9f bc 06 23 33 bd f9 96 aa bd
       -0.13187341 -0.019473897 -0.043734573 -0.08329577
000350 bb cf 8a bb cc 70 73 3d 3f 69 53 bd e8 a3 98 bd
       -0.004236189 0.059433743 -0.051614042 -0.07453138
000360 4f 85 87 3d 0d a2 ed bb a8 ce 13 bd f4 3b 2d 3e
       0.066172235 -0.007251984 -0.036085755 0.16917402
000370 c1 95 17 bd 34 45 53 bc a7 26 d8 bc 47 8f a6 bd
       -0.03700805 -0.012894917 -0.026385618 -0.08132797
000380 37 67 76 bd c0 bf 58 bd 36 6e 14 3c 7f 00 f1 bd
       -0.060157027 -0.052917242 0.009059479 -0.11767673
000390 15 4b 8a bd 4f 58 e3 3b 5d e6 07 bd 40 fd 08 be
       -0.06752602 0.0069380174 -0.033178676 -0.13377857
0003a0 d9 6a 23 3e c3 7d c3 3d 27 07 44 bd a9 79 66 bd
       0.15958728 0.095454715 -0.047858384 -0.056268368
0003b0 37 4d 20 3d bd 58 57 3d dc 9e a2 39 c0 cb fb 3d
       0.039136138 0.05257486 0.00031017407 0.122947216
0003c0 34 1e a5 3c 87 48 3d 3d d8 b5 83 3d 07 cb 29 3d
       0.020156004 0.046211746 0.06431168 0.041453388
0003d0 b1 10 47 3d 12 4a 2a bc 32 1b 82 bc 99 fa af bc
       0.048599903 -0.010393636 -0.015882108 -0.021481799
0003e0 2b ec 60 bd 67 6e a4 bd c9 e5 74 bb 0a af ba bd
       -0.054912727 -0.0802887 -0.0037368408 -0.09115417
0003f0 8f 3d f4 3d 89 32 54 3d 16 3b 4f 3d 91 7d ce 3c
       0.11925804 0.051806007 0.050593458 0.02520636

weight f4 [256, 512]
000000 fe a7 aa bb 51 25 55 bd 09 e9 a7 bc fb 6b 1e 3c
       -0.0052080145 -0.05203754 -0.020496862 0.009669299
000010 52 b0 15 3e 0d e8 2f bc 8b 7b 57 bd 42 89 81 3d
       0.14618042 -0.010736478 -0.052608054 0.06325008
000020 5e 65 4d bc b4 8b ab 3a bf ba 9d bc de 43 2b bd
       -0.012536375 0.00130879 -0.019254087 -0.04181277
000030 48 11 2e 3d ec 9b 18 3d ef 58 01 3e 39 f8 f9 bc
       0.04249695 0.037258074 0.12631582 -0.03051387
000040 2c 78 03 3a f6 70 ae bd 6f 3e c6 bc 7e 5e 2e 3c
       0.00050151604 -0.08517639 -0.024199693 0.010642646
000050 52 ba 04 3d 7d f9 27 3c aa 51 dc 3b 3c 60 68 bc
       0.03240425 0.010252354 0.0067236023 -0.0141831
000060 72 a8 13 bd 71 5a 10 ba 8a be c6 3c 73 d5 10 bd
       -0.036049314 -0.0005506641 0.024260778 -0.03535981
000070 55 f9 1a bc e9 ba 5b 3d 14 b7 8b 3d a0 3e a3 bd
       -0.009458859 0.05364505 0.06822029 -0.07970929
000080 99 38 1c bd 5e ac 99 3d 88 9c bf 3c 87 a4 ce 3d
       -0.038139913 0.075035796 0.02339007 0.10089975
000090 c2 94 2a be 41 c8 50 bd f0 9b 0f bc 1f b7 86 bd
       -0.16658309 -0.050972227 -0.008765206 -0.06577896
0000a0 7b 4b a5 3d ac 27 1c bd ab d8 2a bd 82 73 12 3d
       0.080710374 -0.03812377 -0.041710537 0.035754688
0000b0 be d3 a6 bc fd c8 96 3c a7 26 5f bd e0 35 b3 bd
       -0.020364638 0.018406386 -0.05448022 -0.0875051
0000c0 a7 77 1a 3c 83 64 cf bd 73 b7 21 bd bf 79 05 3c
       0.009427941 -0.10126593 -0.03948159 0.008146702
0000d0 5c 40 f4 3b 95 97 ec 3d de 94 84 bd a1 18 17 be
       0.0074539613 0.115523495 -0.06473707 -0.14755489
0000e0 99 31 df 3d 14 ad 72 bc 13 b4 af 3d 97 ee 0a 3e
       0.10898132 -0.014811773 0.08579268 0.13567577
0000f0 c5 62 b2 bc a4 6e 14 3c 4b dc 05 3c 31 ef 2d bd
       -0.021775613 0.009059582 0.008170198 -0.04246444
000100 92 07 cb bc 02 13 8d 3d 20 c8 68 3b 1c 82 60 3b
       -0.024783883 0.06888391 0.0035519674 0.0034257239
000110 ae a0 bf bb 58 92 85 bd 10 39 53 3d 3a 56 63 3d
       -0.005848012 -0.065220535 0.05156809 0.055502154
000120 76 a9 36 3d c1 81 16 3c 1a 82 76 3d d8 6e 8f bd
       0.044595204 0.009186209 0.06018267 -0.07003564
000130 5b ee 99 bd 4b ed 53 bd 3a 52 5b 3c f3 7b c4 bd
       -0.07516166 -0.051739972 0.013386304 -0.09593954
000140 cd 81 4e be 28 58 65 bc 34 21 6b 3d a6 67 c2 3d
       -0.20166703 -0.013998069 0.05740471 0.094924256
000150 ff 72 1b 3d 4e 48 de 3c 20 db d1 bd 40 c4 f5 3c
       0.037951466 0.027134087 -0.10246873 0.030000806
000160 a7 49 91 bc 29 6a 03 bc ea 32 ac 3d f5 86 b5 bd
       -0.017735315 -0.008020916 0.084081486 -0.08863632
000170 95 cd 87 bc c6 1c f9 3c 83 00 ce 3c 2a 89 42 3d
       -0.016577521 0.030409228 0.025146728 0.04749409
000180 10 b1 41 bd 3c e5 49 3c 41 da 0b bb d5 11 fc bc
       -0.047288 0.01232272 -0.0021339806 -0.030770222
000190 01 05 6f 3d d8 7c 45 bd 4a 49 44 bd 82 4d cb bd
       0.05835438 -0.048214763 -0.047921456 -0.09926893
0001a0 9c 93 27 be 15 bf 2e 3d b9 97 45 bd 78 e3 ef 3d
       -0.16364902 0.0426627 -0.048240397 0.11713308
0001b0 ed a3 93 bd 3c 3b f0 3c dd 6f 88 3d ff b7 4e 3d
       -0.07209001 0.02932512 0.06661961 0.05046844
0001c0 ef 9d d3 3d 0a b7 15 3d 4a 6f b3 bd ec 81 1e bb
       0.10332858 0.036551513 -0.08761461 -0.0024186326
0001d0 07 8f 94 3d f9 2b 52 bd b0 c7 17 be e7 12 45 3c
       0.07253843 -0.051311467 -0.14822268 0.012028432
0001e0 62 e4 7c 3c fa 92 2d be 68 25 3f 3d d8 3e 06 3d
       0.01543531 -0.16950598 0.046666533 0.032774776
0001f0 21 c2 0f 3e f7 f4 67 bd e3 46 65 bd af 5d 67 be
       0.14038898 -0.0566301 -0.055975806 -0.22594331
000200 4f 5d d6 3b 39 36 df bc f7 81 07 3d 8d 57 d8 bd
       0.006541885 -0.027247535 0.03308293 -0.10563574
000210 0c 41 12 bd c4 64 9a 3c 67 45 c1 3d 77 e4 25 ba
       -0.035706565 0.018846877 0.094370656 -0.00063282944
000220 a9 2c a6 bc 80 ba 0f bd 29 34 c5 bd e7 89 34 3d
       -0.020284967 -0.03508997 -0.096290894 0.044076826
000230 bb ec f3 bd e6 f0 6a 3c 5d 9a 8b bd 90 e1 53 bd
       -0.11910387 0.014339661 -0.06816552 -0.051728785
000240 32 d9 81 bd b6 1f 6d 3a 04 ea de 3d a4 c1 44 bd
       -0.06340255 0.0009045558 0.10884479 -0.048036233
000250 6a 73 29 be 05 9a c1 3d 83 05 42 bd bb a5 3b bd
       -0.16547933 0.09453205 -0.047368538 -0.04581235
000260 ea a3 b7 3d 27 46 99 3d 2f e6 5f 3b c1 af 08 be
       0.08966811 0.074840836 0.00341643 -0.13348295
000270 bc 3e 24 3c 3f 0d 82 bc 07 1e af bd 44 49 d2 bd
       0.010024723 -0.015875457 -0.08550649 -0.102678806
000280 c0 a1 7d 3c 80 79 09 3d ca b6 b3 bc 61 60 a4 bd
       0.015480459 0.033563137 -0.021937747 -0.08026195
000290 b2 b8 01 3e 42 a4 48 bb 06 62 ef bc 5e e3 cd bd
       0.12668112 -0.0030615483 -0.029221546 -0.100531325
0002a0 77 90 c5 3d de fa 82 3d fc 36 f1 3c 95 be 17 bd
       0.09646695 0.06395505 0.029445164 -0.037046988
0002b0 e1 99 cb bd 99 0b 97 bd 63 1e 99 3c 80 b8 c0 bd
       -0.099414594 -0.07375259 0.018691247 -0.094101906
0002c0 88 52 ab bd b2 0a 4e 3d 62 54 0a be d2 92 cf 3c
       -0.08365351 0.05030317 -0.13508752 0.025338564
0002d0 14 3e ee 3c 44 7b a1 3c b6 03 4c 3d 43 17 e5 bc
       0.029082336 0.019712098 0.049808227 -0.027965194
0002e0 42 97 62 bd 68 84 e2 3d 96 50 39 3d b2 6d 74 bc
       -0.055320032 0.11060411 0.04524287 -0.0149187315
0002f0 f1 f1 07 3e a8 4d 86 3d 95 44 06 bd 13 d6 4b bd
       0.13275887 0.065577805 -0.03278025 -0.049764704
000300 5d 02 cb bd f7 dc 96 3d db 93 a1 ba 7a 5b ab bd
       -0.0991256 0.073663644 -0.001232739 -0.08367057
000310 54 d7 5d 3d 63 fb 5d 3c 18 d9 9d bc c1 d6 ec 3c
       0.05416043 0.013548705 -0.019268557 0.028910996
000320 63 37 84 bd 5d 18 4a 3d b9 f2 78 bc e6 13 70 3c
       -0.06455877 0.04933964 -0.015194588 0.014653182
000330 26 d2 f3 bc 53 a9 97 3c 5b 31 38 bc 48 22 67 bc
       -0.029763293 0.018513357 -0.011242236 -0.014107294
000340 df 23 de 3d f6 1c aa 3d 74 b6 fc bb 17 24 62 3d
       0.108466856 0.08306305 -0.00771218 0.0552102
000350 a7 1e 9b bd 8f 95 e9 bc 2f 21 fe 3d bc 85 22 3e
       -0.07574206 -0.028513698 0.12408673 0.15871328
000360 6b 6a 99 3d 2d b4 c3 bc a8 d0 c4 bc f1 f2 a4 bd
       0.07491001 -0.023889625 -0.024025276 -0.0805415
000370 16 a3 1d 3e 4c 0e 73 bd cc a9 36 bb 91 ce a0 bd
       0.15394244 -0.059339806 -0.0027872203 -0.078518994
000380 6a 67 7c 3c c9 5f ac bd 04 25 b3 bc 0f 86 a3 bd
       0.015405515 -0.08416707 -0.021868236 -0.07984554
000390 75 d0 0e 3d c8 64 60 be cd d8 92 3c 3c 8f 26 3c
       0.03486677 -0.21913445 0.017925644 0.010165986
0003a0 71 17 b6 bd c6 5f 31 bd ae dd 8b bd 96 9c 22 3c
       -0.0889119 -0.043304227 -0.068293914 0.009925028
0003b0 b3 25 72 bd 3f 35 13 3d cc f6 e5 bd 7f 7f 3b bd
       -0.059117984 0.03593945 -0.112287134 -0.045775887
0003c0 a2 d3 36 bd 8d d5 28 be 8a dc c9 bd e3 7a f7 bc
       -0.044635423 -0.16487713 -0.098565176 -0.030209964
0003d0 52 72 91 bc 4c 1d 87 bc cd 64 31 ba c9 88 e7 3c
       -0.017754707 -0.016493462 -0.00067670346 0.028263466
0003e0 9a a3 3f 3c 6c 8a 92 bc 63 f0 eb bd f0 8e ec 3c
       0.0116967205 -0.01788827 -0.115204595 0.028876752
0003f0 58 ac 65 bd 8f 5e 21 bd de 81 46 bd e7 ae 7d bd
       -0.056072563 -0.03939682 -0.048463695 -0.061934378

bias f4 [256]
000000 73 d4 9c bc 19 a3 4a 3d 47 b7 4b bc 4d dc 77 bc
       -0.019144272 0.04947195 -0.012433833 -0.015128207
000010 d0 78 29 bd 26 20 86 bd 45 47 66 3c 81 e9 14 bd
       -0.04137498 -0.065491006 0.014055078 -0.0363555
000020 29 c6 01 3c cb ea 4b bd b7 76 f0 bc 3c 19 38 3b
       0.00792078 -0.049784463 -0.029353483 0.0028091213
000030 b4 f4 fa bb e4 a0 1d bd 1f 2e a8 3c 72 1d ad 3c
       -0.0076585654 -0.038483515 0.020529805 0.021132205
000040 f3 2e ad 3c e2 69 be bc 27 7b 5b 3c da 9f 0e 3d
       0.021140551 -0.023243848 0.013396061 0.034820415
000050 8a 68 29 bb 99 d5 29 bd 90 52 20 bd 79 9b 98 bd
       -0.0025849664 -0.04146347 -0.039141238 -0.07451529
000060 99 26 81 bd 77 f3 34 bc 4d 76 60 bb b8 b9 84 bd
       -0.0630619 -0.011044375 -0.00342502 -0.064807355
000070 bc 3c b8 3c 72 f7 03 bd 73 5e 3b 3d ea 2f 9a 3c
       0.022489898 -0.032218404 0.04574437 0.018821675
000080 4d 2e b3 bc 56 12 00 bd 6f dd d8 3c 36 fd 9c bc
       -0.021872664 -0.031267487 0.026472775 -0.01916371
000090 9d b1 c7 bc 9e 82 5c 3b 95 bc ce bc 02 b1 92 bc
       -0.024376685 0.003364719 -0.025236407 -0.01790667
0000a0 79 15 5c 3c e8 9b 11 bd b5 1f 9a 3c d8 a9 85 bc
       0.013432854 -0.035549074 0.018813947 -0.01631634
0000b0 02 66 26 bd 58 ab 18 3d ae db 99 3c 9b 65 46 bd
       -0.040624626 0.03727278 0.01878151 -0.048436742
0000c0 fd cc a0 3d aa 3f 94 bd c8 5a d3 3c 8d 5d e1 bc
       0.078515984 -0.072387055 0.025800124 -0.027510429
0000d0 54 bc 20 3c 10 e3 08 bd 5f 0d 25 bd 7a 77 e9 bc
       0.009810526 -0.03341967 -0.040295955 -0.028499354
0000e0 98 7f a2 3b 5a 9b 97 bb bc 03 db 3b 2a b7 05 3d
       0.004959058 -0.0046266736 0.006683795 0.032645382
0000f0 55 f6 40 bd f2 c3 db 3c 60 11 d6 bb b4 6c 11 3b
       -0.04710992 0.026826832 -0.006532833 0.0022190036
000100 d7 91 8b 3c 44 df c8 bd 03 88 43 bd 51 7f 3a 3d
       0.017037315 -0.098082095 -0.047737133 0.045531575
000110 4f 8d 7c bd be 86 d2 3c 25 d6 e2 3a 8e d2 54 bd
       -0.0616582 0.025699016 0.0017306252 -0.051958613
000120 dd 38 ca 3c 93 c6 ff bc de a1 7d 3c b1 8a 2a 3c
       0.024685318 -0.031222617 0.015480487 0.010409043
000130 1d cc 62 3b 32 97 3a bb a5 59 9b bd 89 5b d1 bc
       0.0034606524 -0.0028471467 -0.07585458 -0.025556343
000140 27 75 cd bc 6b dd 0d bd 11 3b f0 bc fc f6 89 bc
       -0.025080277 -0.03463499 -0.02932504 -0.016841404
000150 c6 07 f0 bc 8b a2 aa 3c bb d2 50 bd 20 46 b3 bc
       -0.029300582 0.02082946 -0.05098222 -0.021884024
000160 e3 4c 06 3c 11 e7 10 bd 1f 1e 0b bd c8 fe 3a bd
       0.008197042 -0.035376612 -0.033964273 -0.045653135
000170 45 64 d1 bd f3 40 9a bc 13 2a 6a bd 50 04 11 bd
       -0.10224203 -0.018829798 -0.05716903 -0.035404503
000180 1c 5f 56 bd ae 3d 8c 3c e4 01 b7 bb 67 99 4e bc
       -0.052336797 0.017119255 -0.005584942 -0.012609816
000190 e5 e9 97 3c 1b 77 13 bd 86 65 1f 3c 8e fe 00 bc
       0.018544147 -0.03600226 0.009728795 -0.007873191
0001a0 94 05 0f bd c9 61 81 bc 7c f2 fb 3c 56 9f 77 3c
       -0.03491743 -0.015793698 0.030755274 0.015113672
0001b0 25 1f 79 bd ac 98 93 bc cf df 15 bd c2 65 65 bd
       -0.060820717 -0.018017136 -0.036590394 -0.056005247
0001c0 10 ff b4 bb 3a 8a fb bc 5e c5 05 bd d0 9f 9d bc
       -0.00552357 -0.03070556 -0.032658927 -0.019241244
0001d0 74 c4 5d 3c 63 99 38 3d e8 2c 33 3c fc f1 1a bd
       0.013535608 0.045068156 0.010935999 -0.03782843
0001e0 65 85 c8 bb 25 a0 9b bd bd ae be bc 0f 28 a3 bc
       -0.0061194175 -0.075989045 -0.023276681 -0.019916562
0001f0 05 a6 73 bd 83 38 fc 3c ca 02 34 3c 08 d2 7b bd
       -0.0594845 0.030788666 0.010986993 -0.0614796
000200 6e b5 35 bd b4 4d ab bc 1a 6f 91 bc 0f ab 99 3c
       -0.044362478 -0.020911075 -0.017753173 0.018758325
000210 18 8b 42 bb 2a 77 3e bd 36 44 28 bd 33 d7 c6 3c
       -0.0029684957 -0.046500362 -0.041080676 0.024272537
000220 bd bb 4c bc 10 94 09 bd d0 f4 de 3b ae 7d d1 bc
       -0.012495932 -0.03358847 0.0068040863 -0.025572624
000230 e0 46 69 bd 99 ef 99 bd 01 b3 6e bd de 3d 31 bd
       -0.056952357 -0.07516403 -0.05827618 -0.04327189
000240 35 c6 eb bc 25 f9 02 3d 29 21 a8 bb 8a e8 a6 bd
       -0.028781036 0.031975884 -0.005130906 -0.08149822
000250 e9 a8 15 3d 18 48 42 bd c5 de 39 3c 0f ca 37 bd
       0.03653804 -0.047432035 0.011344616 -0.044870432
000260 d2 5e 11 bd 85 b7 33 3d 7d fa 6b bd a8 ed 23 bd
       -0.03549082 0.04387619 -0.05761193 -0.04002157
000270 8e ce 74 bc fc 43 98 bc e9 54 8f bd 5a 19 30 bc
       -0.014941825 -0.018587105 -0.06998617 -0.010748232
000280 af 0b a7 bb 0d ff a9 bc 17 52 3e bd ed de 91 3c
       -0.0050978283 -0.0207515 -0.046465006 0.017806495
000290 8d d5 92 bc e5 9b 4e bd 46 73 b1 3d 09 6f 18 bd
       -0.017924095 -0.05044164 0.08664565 -0.037215266
0002a0 c0 36 fc 3c 2c 0b 5b bc d2 46 03 bc 5c fc b4 bd
       0.030787826 -0.013369363 -0.00801249 -0.08837196
0002b0 6d ff aa bd d5 4d a5 3b 2c 9a b1 3b 74 92 78 bd
       -0.083495 0.0050446787 0.00541999 -0.060686544
0002c0 fc 58 14 bd 29 4c a3 3d 8b 53 05 3c 64 95 08 bd
       -0.036217675 0.07973511 0.008137594 -0.033345595
0002d0 63 f8 c0 3c c2 3a 3e 3d ec aa 8d 3b e1 31 c0 3b
       0.02355594 0.046442755 0.004323354 0.005865321
0002e0 8e 15 cf 3c 26 14 82 3d 2d ee 5a 3c 62 69 10 bc
       0.025278833 0.06351499 0.01336245 -0.008814188
0002f0 52 28 a5 3d db 48 80 bc 49 8e 70 bd 03 9b 34 bc
       0.08064331 -0.01565974 -0.058729444 -0.011023286
000300 ac f5 6c bd 7c cc 10 bd 47 38 98 bc df b9 36 3c
       -0.05785148 -0.03535126 -0.018581523 0.011152714
000310 42 1d 28 3c 26 df 13 3d 89 0e 9b bd 69 83 29 3c
       0.010260882 0.036101483 -0.07571132 0.010346272
000320 24 b1 9c bc 8c 77 12 bd 83 8a 1d 3c d2 de 06 bd
       -0.019127436 -0.03575854 0.009615543 -0.03292734
000330 9e b8 3f bc 89 7e 99 bb 5c c4 26 3c 8a 87 8f 3d
       -0.011701731 -0.0046842736 0.010178652 0.07008274
000340 34 75 91 bd 2b 24 1e bc 98 ac d1 bb 77 7c b5 3b
       -0.07102433 -0.009652178 -0.0063987486 0.005538519
000350 71 5c 09 bc c4 0a 0f bd 44 b9 95 bd 9f fd 37 bc
       -0.008383856 -0.034922376 -0.07310727 -0.011229902
000360 d2 b3 5b bd 5e f6 f5 bb 43 e4 aa bc 14 e4 3f bd
       -0.053638287 -0.007506176 -0.020860797 -0.04684837
000370 12 0b 15 bc e8 aa 93 3c 8c 75 de bc 68 90 4a bd
       -0.009096878 0.01802583 -0.02715566 -0.049454123
000380 5f 3a 44 3b 8f 62 9e 3b 7b c1 30 bd e5 04 13 bd
       0.0029942018 0.0048335264 -0.043153267 -0.03589334
000390 f1 d7 14 bd c1 4e 7d bd 34 be 03 bc 66 52 fb bc
       -0.03633875 -0.061842684 -0.008040953 -0.03067894
0003a0 cc b0 ba 3d d4 66 31 bc c0 d3 39 3d aa 01 2e bc
       0.091157526 -0.010827739 0.045367956 -0.010620514
0003b0 23 4e e5 3c 64 44 e0 bc f0 a1 24 bd 57 02 d3 3c
       0.02799136 -0.027376361 -0.040193498 0.025757952
0003c0 f3 fc 02 bd 47 b3 2d 3c 88 78 39 bd 7d 3d da 3b
       -0.031979512 0.010601825 -0.045280963 0.006660162
0003d0 e8 34 e9 bc d6 86 81 bc 75 1a 38 bd fb 27 5c 3c
       -0.02846761 -0.015811365 -0.044947106 0.013437266
0003e0 d7 d3 45 bc b0 4e 61 bc 97 0d 93 3c bf f3 9b bc
       -0.012074432 -0.013751671 0.017950816 -0.019037126
0003f0 74 64 05 bb 91 e5 8a bd 32 26 38 bd c6 38 82 bc
       -0.0020354064 -0.067820676 -0.0449583 -0.015896212

weight f4 [128, 256]
000000 e8 98 97 3b ed 04 42 3c f2 21 07 3c 8c 40 22 3d
       0.004626382 0.011841995 0.008247839 0.039612338
000010 6f ac 84 3d 52 58 e2 3c 49 8c a1 3c f4 35 7d 3c
       0.064782016 0.027630005 0.019720213 0.015454758
000020 e7 4f a5 bc 97 48 aa bd 46 d7 dc 3c b6 d5 ba bc
       -0.020179702 -0.08314627 0.02695812 -0.022806983
000030 3a 2f 5d 3c bf f2 38 3d 24 ac cf bc c3 46 78 3d
       0.013500029 0.045153376 -0.025350638 0.06061436
000040 4e 37 97 bb ee 69 84 bd f4 dd ee 3c 27 af 35 bd
       -0.004614747 -0.06465517 0.02915857 -0.04435649
000050 74 25 9e bd 88 e4 f4 3c 4a a7 96 bd 74 aa 35 bd
       -0.07721987 0.029894128 -0.073561266 -0.04435201
000060 00 8b 0d bc bc af 97 3d 8f fa c5 3c 95 d4 be bc
       -0.008639097 0.074065655 0.024167327 -0.023294726
000070 69 29 53 bd 4b e6 08 bd 8d ec a9 bc 96 3e fc bc
       -0.051553164 -0.03342275 -0.020742679 -0.030791562
000080 d8 b5 75 ba 55 08 06 be 73 b1 4d bd bf 8c 97 bd
       -0.0009373105 -0.13089116 -0.050218057 -0.07399892
000090 a3 24 c8 bc 96 48 70 3d e7 92 a6 bc ff a5 99 bb
       -0.024431532 0.058662973 -0.02033372 -0.0046889777
0000a0 c0 dc 99 bc 1c 34 ca 3b 16 5f cb bb 81 0c ff bc
       -0.01878202 0.0061707627 -0.0062064035 -0.031133892
0000b0 ff 64 e1 bb 0b 09 15 be 1a 1c de bd 1c e9 35 39
       -0.0068784948 -0.14554231 -0.10845204 0.00017348345
0000c0 e3 79 42 3d 3f 81 25 bd 44 3f 52 bd 4f fb 39 3d
       0.04747952 -0.04040646 -0.051329866 0.045405682
0000d0 33 fb b9 bc 74 3b 9c 3d 9d 56 96 bc e9 a0 25 3d
       -0.022702789 0.07628527 -0.018351847 0.04043666
0000e0 cf ec 16 bd 5d ff 0f bc 08 de c7 3c 63 c6 72 3d
       -0.036846932 -0.008788911 0.024397865 0.059271228
0000f0 ea 20 5e bc 00 03 ed 3b a1 c1 c4 3d 16 e6 0a be
       -0.013557652 0.0072330236 0.09607244 -0.13564333
000100 e1 0a 71 3d f6 61 88 3d 44 2a 86 bd 8e 7d 47 3d
       0.058848266 0.066593096 -0.0655103 0.048703723
000110 84 09 d9 bb 25 6e f5 bb fd 42 e7 bd 3b d0 1c bd
       -0.006623449 -0.007489937 -0.11292074 -0.03828452
000120 5b e3 5c 3d 1d 23 67 bd 3d 5d 83 ba c4 76 3f bd
       0.05392776 -0.05642997 -0.0010022294 -0.046744123
000130 4f ad e4 bc be 32 87 3c ef 78 69 3d fa 0d c2 3d
       -0.027914671 0.016503688 0.057000097 0.09475322
000140 f9 b0 72 bd 0b 36 64 bc 5b 2b 89 3d f3 40 85 3d
       -0.059250806 -0.0139289005 0.066977225 0.06506529
000150 4f f8 99 3c 36 a7 4e 3d 9b 98 e9 bc 72 6b 7d bd
       0.01879516 0.050452434 -0.02851515 -0.061870046
000160 8b da c7 bd f3 0f 90 bd 22 72 e1 b9 71 9b 46 bd
       -0.09758481 -0.07034292 -0.0004300038 -0.048488084
000170 6e e8 01 3d 76 76 1e bd 43 20 32 3c 8e 60 c3 3d
       0.031715803 -0.038687192 0.01087195 0.09539901
000180 a5 b2 4a 3d 72 bf ce bc af eb fa bd 48 31 a5 ba
       0.049486775 -0.025237773 -0.12251984 -0.0012603188
000190 00 94 cb bd 96 7e 38 ba 9a 44 9b 3d d1 1b 9f 3a
       -0.09940338 -0.0007037906 0.07581444 0.0012139027
0001a0 d9 8f 60 bb 13 75 93 3d ba 2e 73 3d 44 81 34 be
       -0.0034265427 0.072000645 0.059370734 -0.17627436
0001b0 83 c4 2a 3d 6f 73 69 bd 67 ea 74 bd 27 31 1e 3d
       0.041691314 -0.05699485 -0.059793856 0.038621094
0001c0 b1 7e cf bb 3f 0e 3c bd 12 c8 47 bd ea 8b 98 bd
       -0.0063322415 -0.045912024 -0.048774786 -0.074485615
0001d0 cf a5 a7 bd b5 c7 40 bd 5e 7d 9b 3d c8 0b aa bc
       -0.08185922 -0.047065455 0.07592271 -0.02075757
0001e0 0d d8 8d bd 0c 4e 8a bd 15 56 87 bd a8 31 aa 3d
       -0.06925974 -0.067531675 -0.06608216 0.083102524
0001f0 2a dc 82 bc 21 7f ba bc 6c 01 96 3c 18 68 b6 bc
       -0.015974123 -0.022765698 0.018311225 -0.022266433
000200 8f 36 7f bd 87 a0 0e bd fa 38 d6 bd b9 99 de bc
       -0.06230789 -0.03482106 -0.10460086 -0.02717291
000210 d7 05 1b 3e 08 c9 c2 bd b4 f3 c2 3d f3 14 1f bd
       0.15138946 -0.09511 0.09519139 -0.038838338
000220 05 a3 99 3b 26 44 84 bd 7d 01 f7 3c 9f 52 19 3e
       0.004688623 -0.06458311 0.030152077 0.14972924
000230 53 d3 22 3d 72 b2 7b bd 21 27 80 3b 95 0f bf bc
       0.039752316 -0.061449476 0.0039109145 -0.02332286
000240 c3 47 e8 3d 09 fe 9a bd 37 2c e3 3c 49 9a 85 3d
       0.113418125 -0.075679846 0.027731044 0.06523568
000250 49 a8 6a bd 01 c2 31 3b 4c 89 d7 bd 3d e3 b4 3c
       -0.057289395 0.0027123692 -0.10524234 0.022081012
000260 2a e0 e6 bc 7c c5 4a 3c aa 95 68 bd 70 36 7e 3d
       -0.028183062 0.0123761855 -0.056783356 0.062063634
000270 2a 86 2f 3c 71 f4 b2 bc c6 89 92 bd 03 b4 ce bc
       0.01071314 -0.021845074 -0.071551844 -0.02523232
000280 ca ab 0f bd 22 4b e4 bc 5b 9f f3 bd 36 78 8b bc
       -0.03507594 -0.027867857 -0.11895629 -0.017025094
000290 5d 12 8c bd 81 06 b1 3d 3d 47 0e bd cd 3e e2 bc
       -0.0683944 0.08643819 -0.034735907 -0.027617836
0002a0 81 6c 22 3c 20 50 d5 39 ac cc 1c 3d af 47 bc 3c
       0.009913565 0.00040686224 0.038281128 0.0229834
0002b0 c8 42 00 bc 6a 4a 90 3d 7f b5 e9 bc c3 2b db 3c
       -0.007828422 0.07045443 -0.028528927 0.026754266
0002c0 1b cd 11 3d 9c cd 59 3c 59 b3 a1 3b 9c 95 60 bb
       0.035595994 0.01329365 0.00493471 -0.0034268862
0002d0 03 77 25 3d 5e 31 a9 bd c2 4d 6c 3d c3 88 b5 bc
       0.0403967 -0.08261369 0.057691343 -0.02215994
0002e0 91 e3 41 3d 4b dc 85 bd 54 ff 9a bd 59 2c 47 3d
       0.047336165 -0.06536158 -0.07568231 0.048626278
0002f0 32 ea 83 bc f6 83 5d bd 40 ed fb 3c da 2c 57 bd
       -0.016102884 -0.054080926 0.030752778 -0.05253301
000300 6a 7a 05 bd 9f 3f 19 be 40 a7 81 bd 71 76 81 bc
       -0.032587446 -0.14965676 -0.063307285 -0.015803548
000310 b2 f0 13 bd 7e b2 4c bc f6 52 21 3c 4f 4f 42 3c
       -0.036118217 -0.012493728 0.00984644 0.011859729
000320 18 cc 96 3c 6e a5 72 bd f0 f9 58 bd db 8d 89 3c
       0.018407866 -0.059239797 -0.052972734 0.016791275
000330 cd f7 ce bd 92 dc b2 bb da 1b 01 bd a1 a7 3f bc
       -0.10105858 -0.005458423 -0.031520702 -0.011697681
000340 08 72 5f 3c 86 d3 9d 3d bc 53 5d bd 00 54 34 3c
       0.013638027 0.077063605 -0.054034933 0.011006355
000350 d6 01 35 3d be aa de bd d2 22 25 bd e3 1a 82 bd
       0.044191204 -0.1087241 -0.04031641 -0.063527845
000360 6d 88 61 bb 29 a6 86 bc 2d ed 31 bd 25 3d cf 3c
       -0.0034413591 -0.016436653 -0.04343908 0.02529771
000370 5f 94 1f be 82 52 c0 3d 01 17 ec bd 39 5b 7e bc
       -0.15583943 0.09390737 -0.11527825 -0.015524679
000380 73 75 45 bd 07 cc fd bc 88 cb c7 bc 9c dc 78 bb
       -0.04820771 -0.030981077 -0.024389043 -0.003797329
000390 1f f2 96 3b 61 37 48 3d 51 3f 88 3d a2 fa 0b 3d
       0.0046065 0.04888094 0.06652702 0.03417457
0003a0 24 e3 13 bd 0e 42 8a bc e6 00 32 bd cc 40 20 3d
       -0.03610529 -0.0168772 -0.043457888 0.039124295
0003b0 10 3a 5f 3d 2f d4 a1 bd 95 7e 8b bc b5 35 6d bc
       0.054498732 -0.07901799 -0.017028132 -0.014478137
0003c0 26 8a 06 bd 13 5b a6 bd d3 57 4d 3d f5 c2 89 bd
       -0.032846592 -0.0812284 0.050132584 -0.06726638
0003d0 3a 27 0d bd 29 6b 1c be af ad fa bc bc 2c 05 3d
       -0.034461237 -0.15275253 -0.030600397 0.032513365
0003e0 e9 ee fb bb 29 c8 65 bd 61 ff f9 3c 9a a7 c7 3c
       -0.0076883924 -0.05609909 0.030517282 0.02437191
0003f0 62 e8 0d bd 60 57 f3 bd 6c 74 f9 3c 66 c5 d3 bd
       -0.034645446 -0.118819 0.030451022 -0.10340385

bias f4 [128]
000000 d3 2b 97 bd 74 e0 be 3c 3e 37 00 be 19 82 bd 3b
       -0.07381406 0.023300387 -0.12521073 0.005783331
000010 3d 18 d4 3d 44 b7 8c bd 0e 37 b3 bd 37 ef b2 3d
       0.103561856 -0.06870893 -0.08750735 0.08737033
000020 0a 26 fa bd 6c a0 c0 bd 61 55 a9 bd 40 7b 68 3d
       -0.122142866 -0.09405598 -0.08268238 0.056758165
000030 3e 49 f5 bd 29 d3 00 3b 4a a0 06 bb ed 1f f9 bd
       -0.119768605 0.0019657111 -0.0020542317 -0.121642925
000040 dd a7 cd 3d ff 92 de 3b 70 38 4e 3d c5 ac 10 be
       0.10041783 0.0067924256 0.05034679 -0.14128406
000050 c9 72 3b 3d f2 e0 1f be 6d d7 06 bd d3 f1 e5 bd
       0.045763765 -0.15613154 -0.03292029 -0.11227765
000060 6e 73 d0 3d 7a 11 f4 bd 35 2d 6e bc 8d d7 f1 bc
       0.101782665 -0.11917396 -0.014537145 -0.029521728
000070 77 a4 75 3d d2 05 2d bd d9 6b e3 bd 28 8e 1c be
       0.0599713 -0.04224188 -0.11104555 -0.15288603
000080 f7 8e 80 3d 2a 23 06 bd 54 cb d8 bd bb 24 06 3e
       0.062772684 -0.03274838 -0.10585657 0.13099949
000090 c3 89 0f bd 04 0a 2c 3d 5d 90 f1 bd b8 2d 9c bc
       -0.03504349 0.04200174 -0.11795113 -0.01906477
0000a0 fb 68 5f 3c 38 8b 83 3d dc 55 71 3d 97 97 52 3d
       0.013635869 0.06423038 0.058919773 0.0514141
0000b0 8b d8 48 3d 1d fe 3d bd 25 4d 10 be 54 f3 6a bb
       0.049034636 -0.04638492 -0.14091928 -0.0035850601
0000c0 29 87 d8 bd 0c 04 07 3d 20 e5 08 bc ea 12 b4 bd
       -0.10572655 0.032962844 -0.008355409 -0.0879267
0000d0 4f 85 8a 3d f5 e1 15 3d 42 a3 1c 3d 4a 71 f8 bd
       0.06763708 0.036592443 0.038241632 -0.12130983
0000e0 f6 49 bb bd 5d c6 d8 bc 04 de 21 3c 74 db 83 bd
       -0.09144966 -0.026461774 0.009879593 -0.06438342
0000f0 ea 6f 17 be ad 7e b6 3c de fe 7a bd e9 3d b5 bd
       -0.14788786 0.0222772 -0.061278217 -0.08849699
000100 19 c5 e8 3d a9 31 29 3d 93 16 f7 bd c9 af 32 3c
       0.113657184 0.041307125 -0.120648526 0.010906168
000110 51 36 8b 3d f1 e4 78 bb 1d 74 b1 bd 13 68 fa bd
       0.067974694 -0.0037978257 -0.08664725 -0.12226882
000120 e0 c7 56 bd 4e 49 c6 bc 33 11 4a be 50 7e 96 3d
       -0.05243671 -0.024204876 -0.19733123 0.07348311
000130 a6 39 80 3d d9 1b 9f bc 12 a0 87 3d eb 8f d4 3c
       0.062609956 -0.019422458 0.06622328 0.025947532
000140 69 36 85 bd aa 59 ab bd 27 e4 08 be 29 45 82 bd
       -0.065045185 -0.083667114 -0.13368283 -0.063608475
000150 01 6c b5 3d 83 0d 84 3d 35 93 f2 bd 1a 43 43 3d
       0.08858491 0.0644789 -0.11844484 0.047671415
000160 e3 52 b0 bd 9f 54 b9 bd e5 e0 a8 bd 12 52 76 bc
       -0.086095594 -0.09049343 -0.0824602 -0.0150342155
000170 6e ae 7b bd 31 ed 93 3d 8d a2 f4 bc b4 da 40 bd
       -0.061445646 0.07222975 -0.029862667 -0.04708357
000180 bb aa 01 bc e3 3e f2 bd bb 8e ed bc 15 93 9d bb
       -0.0079142405 -0.11828401 -0.028998723 -0.0048087933
000190 57 8e d0 3d fb f3 16 bd bc df 1f be f3 a8 90 3d
       0.10183399 -0.03685377 -0.15612692 0.070634745
0001a0 5a 88 91 bd cf 91 42 3d 8b 65 24 be 1d 36 88 3c
       -0.07106085 0.047502335 -0.1605436 0.016627366
0001b0 df 3e e0 3d 4d 80 9f bd ed d8 4f bc c6 af bd bd
       0.10949492 -0.07788143 -0.0126859965 -0.09262042
0001c0 af 68 40 b9 7a 5a c3 3d a2 1b f9 3c 01 91 17 bd
       -0.00018349545 0.095387414 0.030408684 -0.03700352
0001d0 8e 2e af bd ed dc b2 3c d4 a5 10 3c d7 8d 05 3c
       -0.085538015 0.021833861 0.008828599 0.008151493
0001e0 1c a3 d9 bc 56 a2 d8 3b d7 7f cb 3d e1 15 95 bd
       -0.026567034 0.006611149 0.09936493 -0.07279564
0001f0 70 a7 2e 3c d0 28 9d bd cb 44 d6 bd f5 14 08 3e
       0.010660037 -0.076738 -0.1046234 0.13289244

weight f4 [12, 128]
000000 ea e2 2c bd 0f 1f 12 3e 5b 89 96 bd e7 0a 0b bd
       -0.04220859 0.1426966 -0.07350417 -0.033945944
000010 2d 3a 01 3d 9d 24 d4 bc a9 a8 03 bd 17 b5 49 3b
       0.03154962 -0.025896365 -0.03214327 0.0030778104
000020 89 28 22 bb 10 d3 97 bd d2 5c 05 3d 74 9d 5b 3d
       -0.00247434 -0.07413304 0.032559223 0.053616956
000030 fd 21 38 3d 6c 1d 14 3d d0 dd db bc 07 68 56 ba
       0.04495429 0.03616087 -0.026839167 -0.00081789534
000040 fc 07 e5 3d 24 58 a5 3d d6 27 4a ba 0b 53 06 bc
       0.111831635 0.08073452 -0.00077116245 -0.00819851
000050 8d 31 66 bd 7e 41 5b 3c e2 06 10 bd 2d ab 0c be
       -0.0561996 0.013382314 -0.035162814 -0.13737173
000060 32 b3 8a 3d 2d 46 71 3d 8b a8 57 3c fa f6 13 3b
       0.0677246 0.058904815 0.013162742 0.002257763
000070 3e e0 1a 3d 37 7b 85 bd b2 2b b5 3d f4 9b e6 bd
       0.03781151 -0.06517642 0.08846225 -0.112602144
000080 36 51 82 3d 85 52 ca 3c 38 54 ed bc 3b 8e 02 3e
       0.06363146 0.024697552 -0.028970823 0.12749569
000090 b3 76 41 3d 92 b7 30 3d ae 02 08 3c 01 b6 ca bd
       0.04723234 0.043143816 0.00830142 -0.09897996
0000a0 08 95 63 bc e6 1c 0c bd ce 44 8b 3d ac b9 0f 3d
       -0.013890512 -0.034207247 0.06800233 0.03508918
0000b0 8a 83 05 3d b0 83 6c bd 19 45 71 3d 2c e4 a6 3d
       0.03259615 -0.057742774 0.058903787 0.08148989
0000c0 0f 4c 60 bd 5a 1c b7 bc 73 33 bb bd 12 0e 21 3d
       -0.054760035 -0.022352386 -0.091406725 0.03932006
0000d0 20 3b 4e 3c c2 8c b5 3d b0 96 44 3b ff 76 cd bd
       0.012587339 0.08864738 0.0029997043 -0.10032462
0000e0 16 66 1d 3c bc c1 79 bc f7 ff cc bc bf c5 a9 bd
       0.009606859 -0.015243944 -0.025024397 -0.0828967
0000f0 14 de d1 3d e5 7f d7 bc 16 d4 81 3c 0d 90 b1 bc
       0.10247436 -0.026306102 0.0158482 -0.021675134
000100 4d 8a 24 3d fa 90 66 bd 13 16 35 bc 01 65 66 bd
       0.040170956 -0.056290604 -0.011052626 -0.05624867
000110 e6 b8 8e bc d7 2f 88 bc eb 85 bf 3c d4 5d a9 3c
       -0.01742215 -0.016624374 0.023379287 0.020674624
000120 dd 4d 86 bd 66 6a 99 3d 64 9a 42 3d 3b 06 11 bd
       -0.0655782 0.07490997 0.04751052 -0.035406332
000130 51 de b7 3d e2 1e cf bb b2 10 2e 3d 9d 82 fe 3d
       0.0897795 -0.00632082 0.04249639 0.12427256
000140 f9 48 bd 3c 4f aa 24 be 49 bc 72 3d c3 dd f7 3b
       0.023106085 -0.16080593 0.059261594 0.007564278
000150 fe ba f0 3c 64 cb b3 3b 4c c6 87 3c 1e e0 6f 3c
       0.02938604 0.0054868925 0.016574048 0.014640836
000160 b7 e3 6a 3c 94 fe c2 bd 62 c9 e1 3d 2d 45 92 bb
       0.014336518 -0.09521213 0.11024739 -0.004463813
000170 0d c1 16 3c ad c2 99 3d f3 b3 85 bc 33 c6 a5 3b
       0.0092013 0.075078346 -0.016321158 0.0050590276
000180 4e e7 29 3c b0 e6 68 bc 4f 6f 9c bc b5 1c 49 3d
       0.010370089 -0.014215156 -0.019096045 0.049099643
000190 a9 0e 50 bc 12 3e f0 3c 01 6d b2 bd 73 31 23 bd
       -0.012698808 0.029326472 -0.08712197 -0.03984208
0001a0 0c 14 d3 3d bd a4 a7 bd 20 d1 11 3c a9 9e d9 bc
       0.10306558 -0.08185718 0.008899957 -0.026564913
0001b0 c5 8a 87 bd d0 0d ca 3c 3c 2b 04 3d 05 bf 33 bc
       -0.06618265 0.02466479 0.032267794 -0.010970836
0001c0 d3 4d 20 bb c8 ef 56 3c dd 7a e0 37 1b 31 60 3d
       -0.002446045 0.013118692 2.6760094e-05 0.05473433
0001d0 3d 0f 2c 3d c4 be 4f 3d 7b 92 13 bd 7f 66 94 3d
       0.04200672 0.050719038 -0.036028367 0.07246112
0001e0 21 5e 83 3c 0a 12 8f bd bb 51 89 3d fc 72 99 bd
       0.016036095 -0.069858626 0.06705042 -0.07492635
0001f0 41 fb 79 3d b3 ae 34 bc 48 47 15 3d b5 1e f4 3d
       0.06103063 -0.01102798 0.036444932 0.119199194
000200 05 f8 b8 3c 76 e5 71 ba f6 cc 30 3d dc c8 4f bc
       0.022579202 -0.0009227613 0.043164216 -0.012682166
000210 40 0f ae bd e8 24 b6 3d 3b 25 f4 3d 16 ba 0a be
       -0.084990025 0.08893758 0.11921164 -0.13547549
000220 96 30 d5 3d e1 7c 13 3e 13 c1 38 bd b5 42 ea b8
       0.10409658 0.14403106 -0.045106005 -0.00011170415
000230 7a ff c6 3d 93 93 5a 3d d2 50 81 3d c6 d0 43 bd
       0.09716697 0.053363394 0.063142434 -0.047806524
000240 b1 77 b9 bd 35 16 8b 3d ff af 8b bd 2a 1e d0 3d
       -0.090560324 0.06791345 -0.06820678 0.10162003
000250 4b 5f 86 bd ac bd 69 bb fa 2f 3b bc 19 79 a3 3d
       -0.065611444 -0.0035666032 -0.011425013 0.07982082
000260 62 d5 af bd eb 3c d6 3d fc 41 99 3b d6 23 48 3b
       -0.085856214 0.10460838 0.0046770554 0.0030538938
000270 a8 7c 33 bd b5 2e 98 bc 59 e2 19 be 59 fa 42 bb
       -0.043820053 -0.01857696 -0.15027751 -0.002975127
000280 fa 07 a6 bd 3c 93 06 3c fb ef 8b 3d 79 58 f1 3c
       -0.0810699 0.008213814 0.06832882 0.029461132
000290 ac 2b cf bd 7e 67 3f 3d 7b b3 a5 bc df 56 b6 3c
       -0.101157516 0.046729557 -0.020227185 0.02225822
0002a0 5b 2a 68 3d 8e 4d 83 bc dd 01 48 3d a8 39 a5 3d
       0.05668102 -0.016028192 0.048829902 0.08067638
0002b0 3c 9b a0 bc 50 bd 87 bd 7a 9f 2a 3d 81 5f 62 3d
       -0.019605272 -0.06627905 0.041655995 0.05526686
0002c0 71 a8 62 3c cf ed 17 be 3a 25 54 bd 45 2e 07 be
       0.013834105 -0.1483681 -0.051793315 -0.13201244
0002d0 a0 3c 99 3b 63 10 a1 3d 37 d2 90 3d a4 ab fb 3d
       0.0046764165 0.07864454 0.07071345 0.12288597
0002e0 29 4a b9 bb 10 4b 6d 3d fa 4c 10 be 0d f6 ee bc
       -0.0056545925 0.057932913 -0.14091864 -0.02917006
0002f0 a0 ba 71 3d b7 33 0b 3d 8e d0 37 bd e2 21 49 3d
       0.05901587 0.033984866 -0.044876628 0.04910458
000300 e3 39 8e 3d 8f f1 02 3d f4 1c 06 3d f4 4b 95 bd
       0.06944635 0.03196865 0.032742456 -0.072898775
000310 12 84 cd 3a bc 01 8a bd 65 ad 76 3d b2 1e c3 3c
       0.0015679619 -0.06738612 0.060223956 0.023818348
000320 e1 0c 7a 3d f0 37 78 bd df ec 55 3d 62 aa 1e bd
       0.06104744 -0.06060022 0.05222785 -0.03873671
000330 81 c3 67 bd d7 00 a0 3d cc a5 67 bd 1f b1 ad bd
       -0.05658293 0.0781266 -0.0565546 -0.08481049
000340 bd 73 b3 bd 7e 4f 83 bc 27 c6 e1 bd 7b 48 3c 3c
       -0.0876231 -0.016029116 -0.11024123 0.01149189
000350 e6 4e 37 3c 24 76 3d 3d d7 04 90 3d 78 bc cf 3d
       0.011188244 0.046255246 0.07032173 0.101433694
000360 09 d6 84 3d 85 9d bf 3d 48 9e 0a be 1e 00 80 bc
       0.064861365 0.09356216 -0.13536942 -0.015625056
000370 d8 d0 a9 bb 36 53 88 3d 45 e1 c2 bd 70 b2 b0 3b
       -0.005182367 0.06656496 -0.09515623 0.005392365
000380 d2 48 8f bd f7 c8 1d 3c 5c 39 e5 bc 74 19 b3 bd
       -0.06996311 0.009630433 -0.027981453 -0.08745089
000390 de cd 8d bd df bd a5 3d 9f 34 b6 3d 8c 84 c6 bd
       -0.06924032 0.08092856 0.088967554 -0.0969325
0003a0 77 b2 ed 3b 09 65 c4 bd e9 05 82 bd 8a df 69 3d
       0.0072539407 -0.095895834 -0.063487835 0.05709795
0003b0 27 74 38 bb 25 c1 1a 3c 11 d2 80 3d c4 7f 3e 3d
       -0.0028145404 0.009445463 0.06290067 0.046508566
0003c0 a9 3c 5d bd ca bb 85 bd c9 07 ad bc 8b af f7 3c
       -0.05401293 -0.065299585 -0.021121876 0.030235073
0003d0 c7 42 c6 3d df 4e a1 bd e9 9b df 3b 04 8e 15 bd
       0.096807055 -0.078763716 0.006824006 -0.03651239
0003e0 cb 27 d9 bc 17 2a 9e 3c 6c 29 c8 bd b7 ad 4a bd
       -0.026508233 0.01930718 -0.097735256 -0.049482074
0003f0 c5 e8 d9 bd 40 c6 cd 3d ea 46 9a ba e2 a3 52 bd
       -0.106401004 0.10047579 -0.0011770402 -0.051425822

bias f4 [12]
000000 9d be 1b 3d 32 d5 0c bd 0b e3 fd 3b 19 47 b0 3c
       0.03802358 -0.034383006 0.007748013 0.021518277
000010 af 75 b5 3d bd 2a 8b 3d 95 95 90 bd a2 2a 6a 3c
       0.08860337 0.06795261 -0.070597805 0.014292391
000020 45 1a da bd ed 39 56 3d 6c 1d a0 3d d5 1a ae 3d
       -0.10649542 0.052301336 0.07818112 0.085012116
