joy.ts.pt (torch, 774819 bytes, 8 tensors)

weight f4 [512, 48]
00000000: 4a63 45bd 0710 94be 9e48 653e a70f 683c
00000010: 12a5 1bbe 44c0 fabe cce4 0dbf c3d2 d73c
00000020: c0a0 8abd 30d0 71bc e68e 2e3e 9207 903f
00000030: e016 efbd 2a5c 0f3e 4981 4fbe f2b8 09be
00000040: 5fb4 01be 70a0 b43d d84c a93e cb0c 613d
00000050: 9afe a13d 6ae2 433e 2292 513d 625c e4bb
00000060: adee a0bd 6849 d7bc 70c6 f8be c81d cbbd
00000070: 1cf5 fdba ff1e 063e 557b 133e 3f5e 01be
00000080: 2959 303e dd2e 88be b83b 4fbc 3e0f f8bd
00000090: 59d6 d03b 3daa ac3c 2c9b 2b3d fae3 1bbc
000000a0: e0e6 bcbc 844d d0bc b21b c0bc 64f7 38bd
000000b0: 4359 14bd c527 42bc be4f 803d ddcd 15bd
000000c0: ea7b 5e3d 3dbd 76bd 8730 e6bd 78e8 233e
000000d0: 10e7 f0be c623 4bbf 0b1c 21bf fc25 e5bd
000000e0: 2e7b 11be 3508 383d 2461 2a3d cee8 6a3e
000000f0: 7c89 96be 57c6 ff3c b0cd c63d c720 933e
00000100: 3bd9 c83c ccdf c0be a3fd c6be b9e9 103e
00000110: d9bb 063e c2aa 2d3c 5b6a d5bc f486 b33d
00000120: 99cc 0ebe ecf3 773e 1a85 4dbe 052f ae3e
00000130: d763 02bd 40c2 0bbf 504f 00be 4671 c93e
00000140: 0283 713e 0b5a aabe 1722 0c3e 0752 4fbc
00000150: 7bed 873d 3e9e 983b 8c09 863b dfdb 063b
00000160: 2ea9 24bd f43e d3bb e37e 063d c7ec b0bc
00000170: 5236 c63c 5532 3f3d 9ed1 87bc 3f24 1d3b
00000180: 6a33 073e 3d06 583e b703 de3d 2f8a b53d
00000190: ab37 313f cc81 02bf cd1d 29be 4b31 20bf
000001a0: 0d2c bc3d 7cb8 9b3d 1f51 6abc a2eb 783f
000001b0: 41ff 263e eea5 943d 950c e6bd 6633 59be
000001c0: 1247 85be 0e41 0abe f930 a13e bfb2 463e
000001d0: 7ec8 a33e 3a48 a63d fef7 983e f40f 25bd
000001e0: e8ad eebd 33f3 b33e 9666 89be 0f5f 06be
000001f0: 7d6e 46be 3b65 923e daa2 1f3e fb1b 8cbb
00000200: 0be0 e8be 2aed e6be 7114 743c a5a9 143e
00000210: d406 d2bc 8079 223c d881 a43c b44c 063d
00000220: a7f0 a8bb fd93 bc3c caf1 e0bc b876 abbc
00000230: b846 cdbb f8ce eebb 2013 023b 7815 b4bc
00000240: bba5 c9be b5a3 003e 5898 da3c 0b64 8ebe
00000250: 96ff 873e 9d08 80be 3eb4 803e 6f1e 193f
00000260: ec58 b53d 31d9 ee3e a9f8 83bc 0a12 20be
00000270: abaf b6be 2cb5 983e 04cc 593e 67b8 2cbe
00000280: 60d3 093d d540 3bbe b4ec 0f3e 4eb8 edbd
00000290: db06 a83e 9589 e8be 85f6 a3bd f7d2 943e
000002a0: 9c36 66be 09c0 883e 1d8c a1bd 7db5 3cb8
000002b0: 710e 0dbe d084 963e 1b8c 7cbc 09a3 f7bb
000002c0: 2244 e7bc ed00 77be 2bc8 a5bd 1d4d a73d
000002d0: 9546 d63b 6686 67bd 924f 84bd 596b 503d
000002e0: 400d b03d 0067 183d 6ffd df3c 14bc fc3d
000002f0: f85f 523c c7d5 5cbd e468 41bc 3eb2 f8bc
00000300: 146a 9c3c 1a35 d63b 398f 7ebe 7f98 f23c
00000310: 61d0 16be a4fa 9a3e f37c 013f 4ffa 82be
00000320: 3991 133e fd10 81bc 0405 25bd c840 41bf
00000330: 3940 12be a0d7 963e dc93 fa3e fc59 813e
00000340: 88db 9abd 709a 57be 52fd 253e 749e 6cbd
00000350: 6a74 54be 63eb a5be f7d9 8b3d 6539 50bd
00000360: b0de 1bbf feac 233f 887f 47be 37a1 0ebe
00000370: 3778 54be d87c a2bd 484e ccbe ac4f 41be
00000380: 707e 30be 6760 9f3e f42c ff3b 5d64 c7be
00000390: df95 cbbb 294c 45bd 86e9 02bd a52d caba
000003a0: 4979 253d 6c59 dabb 21f4 d63c 66b0 923c
000003b0: fc99 063d 5087 c5bc 66ec 663c 9c0c 8f3d
000003c0: 927a a2bd f82e acbc ad69 623e 2272 17bf
000003d0: c200 cfbd 8f08 6f3f d198 bbbc cece 1f3f
000003e0: dc99 ac3d a101 8dbc 7506 883d 26b7 89bf
000003f0: b48d b4be 0a85 73be d965 f83d 603b 913e
-0.048190393 -0.28918478 0.22390983 0.014163888 -0.15199688 -0.48974812 -0.5542724 0.026345616
-0.06768942 -0.014759108 0.17046699 1.125231 -0.11674285 0.14000002 -0.20264162 -0.13449457
-0.12666462 0.088196635 0.3306644 0.05494384 0.079098895 0.19129339 0.051164754 -0.0069690207
-0.07858024 -0.02628012 -0.48588896 -0.0991779 -0.0019375416 0.13097762 0.14402516 -0.12633608
0.17221512 -0.26598254 -0.012648515 -0.12112282 0.0063732085 0.02107727 0.04189603 -0.009514803
-0.023059309 -0.025427587 -0.023450706 -0.045157805 -0.03621794 -0.011850302 0.062652096 -0.03657328
0.054317392 -0.060239065 -0.112397246 0.16006649 -0.47051287 -0.7935146 -0.62933415 -0.111888856
-0.14207146 0.0449297 0.041596547 0.2294037 -0.29401767 0.031222505 0.097072005 0.28735945
0.024517646 -0.37670743 -0.38865384 0.14151658 0.13157596 0.010599794 -0.02605169 0.08765975
-0.13945235 0.24214143 -0.20070305 0.34020248 -0.031833496 -0.54593277 -0.12530255 0.39344233
0.23585132 -0.33271822 0.13684879 -0.012653834 0.06637093 0.004657536 0.0040904935 0.002057783
-0.040200405 -0.0064467136 0.032835852 -0.02159728 0.024195824 0.04667886 -0.016579445 0.0023977903
0.13203207 0.2109613 0.10840552 0.08864247 0.6922557 -0.50979304 -0.16515274 -0.62575215
0.091880895 0.07603547 -0.014301567 0.9723455 0.16308309 0.07258211 -0.112328686 -0.21211013
-0.26030785 -0.13501379 0.31482676 0.19404124 0.319889 0.08119245 0.29876703 -0.040298417
-0.11654264 0.35146484 -0.2683608 -0.131222 -0.19378085 0.28592858 0.15589467 -0.0042757965
-0.4548343 -0.45102817 0.014897452 0.14517839 -0.025638022 0.009916663 0.020081446 0.032787994
-0.005155641 0.023019785 -0.027459044 -0.020930633 -0.006264534 -0.007287856 0.0019847825 -0.021982893
-0.39384255 0.1256245 0.026683971 -0.27810702 0.26562184 -0.2500657 0.25137514 0.5981206
0.08854851 0.4665008 -0.016109781 -0.15631881 -0.356809 0.29825723 0.21269232 -0.16867219
0.03364885 -0.1828645 0.14055139 -0.11607419 0.3281773 -0.45417467 -0.08006004 0.29067203
-0.2248177 0.2670901 -0.078880526 -4.4991717e-05 -0.1377504 0.29398203 -0.015414263 -0.007557277
-0.02823073 -0.24121447 -0.0809482 0.08169005 0.0065391758 -0.056524657 -0.06460489 0.050883625
0.08596277 0.037207603 0.027342526 0.123405606 0.012840264 -0.05391481 -0.011804793 -0.03035843
0.01909355 0.006537092 -0.24859323 0.029613731 -0.14727928 0.3026935 0.5058128 -0.25581595
0.14410867 -0.015755171 -0.040287986 -0.75489473 -0.14282311 0.29461384 0.48940933 0.25263965
-0.075614035 -0.21055007 0.16209915 -0.0577683 -0.20747533 -0.32406148 0.06828683 -0.050835986
-0.6088667 0.6393584 -0.19482243 -0.13928686 -0.20748983 -0.07933968 -0.39903474 -0.18878049
-0.17235732 0.31128237 0.0077873413 -0.3894376 -0.0062129344 -0.048168335 -0.031960987 -0.001542498
0.04039887 -0.006663492 0.026239457 0.017906379 0.032861695 -0.024112374 0.014094448 0.06984827
-0.07933535 -0.02101849 0.22110625 -0.5915853 -0.101075664 0.93372434 -0.022900017 0.62424934
0.08427784 -0.01721269 0.066418566 -1.0759017 -0.3526436 -0.23781219 0.12128801 0.28365612

bias f4 [512]
00000000: 120f 0f3d bc3c 243c 2292 9c3d 4f40 9dbb
00000010: 78d1 bc3d adb2 efbd c926 5e3e 021d a73d
00000020: 1acb e43d 49e6 02be 110d 26be e034 c13d
00000030: 8382 39be fd1a f2bd c0d0 1bbd 5a37 833d
00000040: 6abb 40be 4b2d b43d 3379 2f3d 58fa f63d
00000050: 907b 483a cc4c 863d 8242 d4bc 7c7c e63d
00000060: ca2d 8abd 8335 d7bc 080a 49be 981d ce3d
00000070: 051e 123b 038f 1f3c 2878 0a3e ab35 eebd
00000080: 446c 79bd 36ce f03d 53b1 e6bd 69f2 61be
00000090: 8eae 0b3d 2502 a0bc 9a69 103d 7c29 03be
000000a0: d192 d23d 8f79 83bd d1d7 8ebc 2737 053e
000000b0: 3ba7 43be b355 57bd 05ae 5ebe ee07 d0bc
000000c0: 8514 aabd e036 6fbe 2589 333d 329b 133e
000000d0: d9f4 41bb dd11 85bc 2810 e03d 25b9 953d
000000e0: a1a5 59bd 3d83 2fbe de97 68bc 9ee3 51be
000000f0: 9de8 7bbd 9a4e 4bbd 1cb6 273e 81b8 c9bd
00000100: cb9c 84bd 4fce 713e d368 18be 6c09 26be
00000110: 881a c03d c741 13bd 9752 7f3d 8a44 0bbe
00000120: 3e4a 97bd 9f81 a1bd 88cf d13d db41 bfbd
00000130: 3006 cfbd 0435 8bbd 680c 643c 1609 913d
00000140: 48c1 a7bd 41b9 0b3d c500 113d 7901 27be
00000150: 4493 5e3d 771b 22be 6bf2 b0bd 5ecb cbbc
00000160: f5a5 443b da5d 2bbe a3f9 313e 7e91 1b3e
00000170: e6eb f7bd f932 6f3d 7472 313e 4a1f 6f3e
00000180: f5fe 103e 5d24 193e 5511 583d d6a0 42bc
00000190: b984 30bd 91f2 403e 560c fd3d 6044 2a3d
000001a0: b025 723e 63e7 a63d d36f 9bbc 2a6e 83bd
000001b0: 24f1 a1be 5991 3b3d 36c0 063e 1272 52bd
000001c0: 4629 913d e62c 4bbe 49c5 bbbd abb5 98bd
000001d0: ffbe 62be 76b5 dfbd ac70 90bd 412f 5b3e
000001e0: 1e1b 29bd d570 c6bc 5728 a7bd eadd 2d3e
000001f0: 7260 113e a84c 73be 5101 8cbd cb7c 2d3c
00000200: d4d7 27bc 9d97 f33d 5a6c 003e bbeb 15bd
00000210: 5b7c 24be 6983 073e e06b babc 2c59 38be
00000220: fd87 0c3e f6e3 34bd 4fff abbd 726f 10be
00000230: 0e63 d5bc 6887 b3ba 2246 393e 4bc9 1b3e
00000240: 134b 92bd dcfb a13d ef31 c5bd d415 8ebd
00000250: 2bd1 293e 15be cebd 780f fd3d 5a3b 31be
00000260: 1b7d 18be 4b19 b43a 4101 72be d4f4 46be
00000270: 6f4c b3bd 7719 5dba 22aa 193e 32f5 b9bd
00000280: f5d4 4fbc 4235 dcbd ab0a 85bd 635d ee3c
00000290: 91bd fe3d bb99 9f3d f054 3dbd 493c ad3d
000002a0: f678 a03b 3bc8 9fbb 1cfe 18bc cd10 0bbd
000002b0: a454 48be 1e7d 833d 1bac 503e 10ed 0bbe
000002c0: 583e 55be 37fe 9c3d c759 cb3d fc35 44be
000002d0: 6020 f5bd 9a13 61bd e444 633e fd27 acbd
000002e0: c926 7f3e 7f26 04be a855 b8bd 79f7 743d
000002f0: 5ebd 863c d384 c33b 0262 323e 0e98 91bd
00000300: 201d 3bbe 58ee c83d f79d 80bd b628 8b3d
00000310: e523 64bd 4b19 f63d e0e5 25bd 8bdd 30bd
00000320: 0bff c0bd dd43 0bbd fd37 a03d 10de 74bd
00000330: 295e 333e 5514 bc3d 5893 f4bd 34b2 86bd
00000340: 28b3 6cbe d30c 4bbe 908f eabc f21e 553e
00000350: bd45 15bc cd05 233e a47e 18bd de7e 4b3d
00000360: 58ad 183d 04e1 403e b4e5 e93d e0f8 133e
00000370: 57db d0bd bcf0 b8bd aec7 183e ee00 9bbe
00000380: da64 34be 0d99 7bbe 1fb6 13be 99c2 11be
00000390: f149 42bd 291b 48be 1ffc 7f3e 8674 06be
000003a0: 2398 003d ad16 8a3c d317 943d 2f94 2bbe
000003b0: 466a 02be 093e 663e 57b7 73be 303e 0b3e
000003c0: 7e2a babc b233 483b fb1e 883d 9216 a93c
000003d0: ecfb 64be 1dde 1fbe ee88 163e c884 90bd
000003e0: 9bb0 9dbe f591 e63d 25ec c43d 1f72 a43d
000003f0: 12fe 883d 48e7 eb3d 7992 89bd 93f9 bebd
0.03492648 0.010024246 0.0764506 -0.004798926 0.092196405 -0.117040016 0.21694483 0.0815983
0.11171551 -0.1278316 -0.16215922 0.09433913 -0.18116193 -0.11821554 -0.038040876 0.06407042
-0.18821493 0.087977014 0.042840194 0.12059468 0.0007647807 0.065576166 -0.02591062 0.11254212
-0.06747015 -0.026270634 -0.19632733 0.10064238 0.0022295725 0.0097386865 0.13522398 -0.1163133
-0.060894266 0.117580816 -0.11264291 -0.22065128 0.034102015 -0.019532273 0.03525696 -0.12808794
0.10281909 -0.0641967 -0.017436894 0.1300932 -0.19106762 -0.052571964 -0.2174607 -0.025394406
-0.08304695 -0.23360777 0.043831963 0.14414671 -0.0029595403 -0.01624387 0.109405816 0.07310704
-0.05313647 -0.17139907 -0.014196364 -0.20496985 -0.061501134 -0.049635507 0.16378063 -0.098496445
-0.064752184 0.23613857 -0.14883737 -0.16214532 0.093800604 -0.035951402 0.062334623 -0.13600364
-0.073872074 -0.078860514 0.102446616 -0.09338733 -0.10108602 -0.06797221 0.0139189735 0.07081811
-0.08191162 0.03411222 0.035401125 -0.16309156 0.054339662 -0.1583079 -0.086399876 -0.024877246
0.0030006145 -0.1673502 0.17380385 0.1519222 -0.12105541 0.05839822 0.17328817 0.2335178
0.14159758 0.14955278 0.052750904 -0.011879167 -0.043095324 0.18842532 0.123558685 0.041569114
0.23647189 0.08149602 -0.01897422 -0.064174965 -0.31629288 0.04579291 0.1315926 -0.051378317
0.070879504 -0.19841346 -0.091684885 -0.074565254 -0.22143172 -0.10923283 -0.070527405 0.21404745
-0.041285627 -0.024223724 -0.08161991 0.16979185 0.14196947 -0.23759711 -0.068361886 0.010588835
-0.0102443285 0.11894152 0.12541333 -0.036601763 -0.16063063 0.13233723 -0.022756517 -0.18002766
0.1372375 -0.044162713 -0.083983056 -0.14105013 -0.02604821 -0.001369697 0.1809316 0.15213506
-0.071432255 0.079093665 -0.09628665 -0.06937757 0.16583697 -0.10094849 0.12356466 -0.17307797
-0.14891474 0.0013740448 -0.23633291 -0.19429332 -0.08754813 -0.00084342755 0.15006307 -0.090799704
-0.01268505 -0.107523456 -0.064961754 0.029097265 0.12438501 0.07792994 -0.04622358 0.08458764
0.004897232 -0.0048761643 -0.009337928 -0.03395157 -0.19563538 0.064203486 0.20378153 -0.13664651
-0.20824564 0.07665675 0.09929233 -0.19161218 -0.11969066 -0.054950334 0.22194248 -0.08406065
0.24917139 -0.1290531 -0.09000713 0.05980632 0.01644772 0.0059667616 0.174202 -0.0710908
-0.18272829 0.098110855 -0.062801294 0.06794874 -0.055698294 0.12016543 -0.04050243 -0.04318003
-0.094236456 -0.034000266 0.07823179 -0.059782088 0.17516388 0.091835655 -0.11942166 -0.06576958
-0.23115218 -0.19829111 -0.028632909 0.20812586 -0.009110865 0.15920182 -0.03723015 0.049681537
0.03727469 0.18835837 0.114207655 0.14450407 -0.10198086 -0.090302914 0.14919922 -0.30274147
-0.17616597 -0.24570103 -0.14424942 -0.1423439 -0.047433797 -0.19541611 0.2499852 -0.13130388
0.03139509 0.016856516 0.072311066 -0.16755746 -0.12735853 0.22484602 -0.23800407 0.13597941
-0.02272534 0.003054839 0.06646534 0.020640645 -0.22361726 -0.15612073 0.14700672 -0.07056576
-0.30798802 0.11258308 0.096153535 0.08029579 0.06689085 0.11518723 -0.067173906 -0.09324946

weight f4 [256, 512]
00000000: 93bf 37be 65a8 8abe 9427 05bd e38b 883d
00000010: 730a cebd ba3e 2cbd e2b1 87be 385b a53d
00000020: 3b4d 08bd 45b3 f53b 4158 723e 7721 cbbd
00000030: a78c cb3d 36f7 373d a171 28bd e714 70be
00000040: 40ac 4d3e 3869 633d b9a8 23be 6a23 9cbd
00000050: 213f 5b3d 562c 13be 96e5 16be ba36 28be
00000060: 6678 713d 857b ccbd 3f7c a13d 4d32 cb3b
00000070: dbe2 a0bd ec22 5d3c a1f7 a93d 6255 c43d
00000080: a4c4 2ebd 8b63 d3bc 896f e53d ca13 6c3e
00000090: b0a7 d3bd dc0a 8abd 92d9 35bd 959b 0b3d
000000a0: ed23 cfbd 430c 843d 5468 71bd 6ad8 e5bb
000000b0: efee 8a3c fddc 05bd 63f0 903d d36d 5d3e
000000c0: b2ea 14be ebfa 533e 70bb 06be 6eb8 18be
000000d0: 9905 ca3d dc69 d33d 5d3a a03e 5192 9cbd
000000e0: 9245 50bd dd8e 55bd 5a74 34be 1ff1 233e
000000f0: 138f 50bd 6019 b6bd 76cb b2bd 4b76 2b3d
00000100: c340 bcbd 5940 1dbd 5032 bd3d 746c 96bd
00000110: 4f1f c93d 6ad8 ccbd 09e8 273e 3af8 b0bc
00000120: add0 523e 470c 1ebe 843d 95bd a663 02bd
00000130: 8de8 bd3c db3a 033c 3506 a13d 043d 33be
00000140: 4725 643d 9917 d03d d9fc febd 440f f43d
00000150: 7e29 f2bd 25ff 44bd 0a31 f73d 18ab bbbd
00000160: 29ea 7ebd 9592 693e 4363 cdbd 7bc7 a3bc
00000170: 509c 19be 943b 9fbd 65c6 8fbd 37f0 3fbe
00000180: c019 1dbd 9a9c 03bd 548b 76bd b40a 9cbd
00000190: f49a abbd 9699 a53d 463f 79bd 4246 87bd
000001a0: 3fb9 ecbd 7bd7 28be 00ed 25be df61 c4bb
000001b0: eddb 1abd fa2b 8a3d 61fc 41be c033 f3bc
000001c0: aef4 3abd ad0f 5d3e 58b1 bb3d 0953 e2bc
000001d0: 67fc de3d 2007 0c3d b1f7 1cbe 938e 9ebd
000001e0: fc90 ae3d 32b9 9fbd 4573 743d 2c8f 2abe
000001f0: 0cce 1bbe d5a4 1f3e 8778 513e 9586 21bd
00000200: c5ae fabc b225 a83d bf20 943c 3502 733c
00000210: 803f 0c3e ac53 533d b335 21bd 6db0 3a3e
00000220: 9098 07be f7b3 b3bc fd25 9d3c 9ebe 9f3d
00000230: 8e02 20bd fda9 ad3b 532d 81be 3228 9dbd
00000240: 4767 183d cc72 05bd ab84 2a3d 7a0a 183e
00000250: 3a52 f0bc 4ece dd3d 64d3 0abe f7ba 813c
00000260: 43d4 40bd 1d84 18bd 7729 873e 96eb 8f3e
00000270: 5a09 4dbd 2aef 8a3c 4e52 51be 88ac 13be
00000280: 90ec 79bd de77 1e3e 98f2 27bd e73d e93b
00000290: 6e66 d2bd 44ec 823e 33bc 52bd be2c a73c
000002a0: 3a80 adbd 053d 12be 6480 903c 37af 863d
000002b0: 016e 3f3e 8752 32bd d2f1 be3c 0e36 acbc
000002c0: e390 443d 916c 75bd 5680 bf3c a746 3c3d
000002d0: 3606 603e e896 7abd 13a4 82be 29f0 81bd
000002e0: e108 3cbe f418 b8bc 585e 8dbd 5393 3f3e
000002f0: f5ab 953d 2f3c bd3d 2b00 5cbd 0c95 81bd
00000300: 0a99 483d 23bf 8bbe 17a9 3b3e 96fa 443d
00000310: c95d 05bd 5830 41be 04b8 073e f7a8 a03b
00000320: 8ee3 ad37 6ff2 b3bd 78cf da3d 2b4b 21bd
00000330: 8318 0dbd 1bd0 f5bd 19ac c63d 83e8 133e
00000340: a9cf 3e3d 6f68 aa3b 3d1f 8dbd 05b5 f2bc
00000350: cc6f e13d f943 e3bd 74bf 903d 7351 a9bd
00000360: dbc3 25bd b091 35bd 49a2 b7bc 391e 17be
00000370: 9723 9e3d 4f93 b23d 0d6e 8ebe 9a1b 2abc
00000380: 0d20 c23c d1c1 ddbc b3bc b83d 6bd4 323e
00000390: 2216 47bd 4732 9f3d f9f0 f7bd 2754 dcbd
000003a0: 73ea 81bd 07f3 33be f086 09be 422c 25bd
000003b0: 03f7 463e c6cf e6bc 070a 86bd a8ee 1a3b
000003c0: 78f2 ea3d dbe4 33be 94f9 babd 377e 6c3d
000003d0: b671 983c ef1d 38be 003d 95bd 2940 a33d
000003e0: 17c5 743d f0b7 5fba 0b99 033e 76bf 38be
000003f0: e773 1dbe 890a 67be e7d1 eabd 160e 33bc
-0.17944174 -0.270816 -0.032508448 0.06667306 -0.10060587 -0.04205201 -0.265029 0.08074039
-0.033276778 0.0074981772 0.23666479 -0.09918492 0.09938937 0.044913493 -0.04112399 -0.23445474
0.2008524 0.055520266 -0.15982331 -0.07623942 0.053527 -0.14372382 -0.14736018 -0.16427127
0.05895271 -0.09984497 0.07885026 0.0062010647 -0.07855769 0.013497096 0.082991846 0.09586598
-0.042668 -0.025804302 0.11202914 0.23054424 -0.10334718 -0.067403525 -0.044396944 0.03408392
-0.10114274 0.06447651 -0.058937386 -0.007014324 0.016959636 -0.032681454 0.070771 0.21623926
-0.14542654 0.20701186 -0.13157439 -0.14914104 0.09864349 0.103229254 0.31294528 -0.07645095
-0.050847597 -0.0521382 -0.1762251 0.16009949 -0.050917696 -0.08891559 -0.08730213 0.04186086
-0.0919204 -0.038391445 0.09238112 -0.073449045 0.09820425 -0.10002215 0.16397108 -0.021602739
0.20587416 -0.15434371 -0.07287124 -0.031833313 0.023182178 0.008009638 0.07862512 -0.17503744
0.055699613 0.10160751 -0.124505706 0.11916974 -0.1182432 -0.048094887 0.120699 -0.09163493
-0.06223503 0.22809823 -0.10028698 -0.01999258 -0.15001035 -0.077750355 -0.07020263 -0.18743978
-0.038354635 -0.03213177 -0.060191467 -0.07619229 -0.08379164 0.08085935 -0.060851358 -0.066051975
-0.115587704 -0.1648845 -0.1620369 -0.0059931125 -0.037807394 0.06746669 -0.18943931 -0.029687762
-0.0456435 0.21588011 0.09164685 -0.027627485 0.10887986 0.034186482 -0.15328862 -0.077420376
0.08523747 -0.07798995 0.059680242 -0.16656178 -0.1521532 0.15590222 0.20456134 -0.039434988
-0.030600915 0.08210315 0.01808202 0.014832069 0.13696098 0.051593468 -0.039357852 0.18231364
-0.13241792 -0.0219364 0.019183153 0.07800029 -0.039064936 0.005299805 -0.25229892 -0.07673682
0.037207868 -0.032580182 0.04163043 0.14847746 -0.029336084 0.10830365 -0.13557202 0.015836222
-0.04707743 -0.037235368 0.26398823 0.28109425 -0.050057746 0.016959745 -0.20441553 -0.14421284
-0.06101662 0.15475413 -0.04100284 0.007117975 -0.10273443 0.2557088 -0.051449012 0.020407077
-0.08471723 -0.1428109 0.017639346 0.06576388 0.18694307 -0.043535735 0.023308668 -0.021021869
0.047989737 -0.05991799 0.023376625 0.045965817 0.2187737 -0.06117907 -0.25515804 -0.06344635
-0.18362762 -0.022472836 -0.0690276 0.18708543 0.07308189 0.09239995 -0.053711098 -0.063272566
0.048974074 -0.27294263 0.18326221 0.04809054 -0.032560144 -0.18866098 0.1325379 0.0049029547
2.072917e-05 -0.08786475 0.10684103 -0.039378326 -0.034447204 -0.120025836 0.09700794 0.14444165
0.04658476 0.0052004377 -0.06890724 -0.029627332 0.11007652 -0.11096949 0.07067767 -0.08267488
-0.040469985 -0.04432839 -0.02241625 -0.14757623 0.07721632 0.08719503 -0.27818337 -0.010382557
0.023696924 -0.027069958 0.090203665 0.17463844 -0.048605092 0.077732615 -0.12106509 -0.10758238
-0.06343546 -0.17573176 -0.13430381 -0.04032541 0.19430165 -0.028175246 -0.06544881 0.0023640785
0.114720285 -0.1756777 -0.091296345 0.057737555 0.01860891 -0.17980169 -0.072870255 0.07971222
0.059758272 -0.0008534184 0.1285135 -0.18041787 -0.15376244 -0.22562613 -0.11465817 -0.010928651

bias f4 [256]
00000000: 593b e9bd 66bb 2abd 485f 2dbe c5b2 d7bd
00000010: 5020 21be 3415 22be 44a5 4bbd 1c0c 0abe
00000020: 1ecb 09bd 99f5 79be badf f5bd ba8c 8dbd
00000030: 924e 11bd 6773 12be b6bf dbbc 3f49 45bd
00000040: 9992 81bd b6dd 71bd 94ab a5bc 2a95 0ebd
00000050: 6048 62be 4e17 8cbd ca83 64bd 3d95 f1bd
00000060: 0fa3 2bbd 4cfe 1cbd 2f8b 18be 60fe 0bbe
00000070: de4b a3bd 4fff 09be b18c 39bd 1a76 e9bd
00000080: df44 48be 9560 d8bc 77fa 96bd 7fd5 91bd
00000090: 0849 b9bc e12d 57bd d109 0dbe 93c0 debd
000000a0: 0199 d239 ea9f 3abe 78b4 3fbd cbd0 1ebe
000000b0: 248d b8bd afd2 ddbd f64b f9bd b22a b4bd
000000c0: 4c39 64be 46ef e5bd 03e3 fb39 c972 49be
000000d0: ae6a 2ebe ec17 453d dff3 58be e3d1 a9bd
000000e0: 57b3 f53c ee7f 33bc a38d bcbd 5211 c0bd
000000f0: 3a58 19be dcfe c6bd 0aec 6cbd 6f8c f2bd
00000100: 0b45 fdbd 5aee 05be 5a91 43be 6344 eabd
00000110: d5a8 3f3d b6e6 debd d035 c4bd a9b3 b1bd
00000120: a2e8 c1bd c83b 7abe c83a 51bd 59bb 14be
00000130: 83ee cd3d beaa 9dbd a973 15bd d669 91bd
00000140: 72bb 1fbd 5139 573c 60bd eabd 435d c1bd
00000150: c5bc 02bd 8716 15bd 35d1 87bd 41ba 59be
00000160: 3a3e dabc 05ef 7f3c 5148 64bd 64b7 21bd
00000170: 1c30 f3bd 1b35 41be 000f efbd dbbb 31bd
00000180: ed07 11bd 12a9 babd 6e58 7ebd fa47 09be
00000190: fe5b f1bc cd1f 463c 46b0 00be 6f1f afbd
000001a0: 9ed9 77be 6c46 b6bd daa7 cabd 248d 1abe
000001b0: 4398 1cbe a25d efbc 1154 9fbd 4d18 eebd
000001c0: cea2 fc3b 8131 99bd 7c26 96bd 0db8 28bc
000001d0: 491e 47bd bc70 bfbd e51c 24bd 894a 03be
000001e0: 131e 22be f0a8 9abd 411e a9be a914 58bd
000001f0: 0373 3dbe b1cc 4abe a511 aebd b0f8 c9bd
00000200: d860 6dbe 1b2e 9ebd 9a3c 04be 957a 46bc
00000210: 3af1 82bd b017 53be 3377 80bd 0951 803a
00000220: 4f7a 1abe 535f dabc 6b12 babd 34f6 b7bd
00000230: 4e6b c3bd d04b 4a3d 28cd de3c 1193 cfbe
00000240: 7991 253d f47e adbd a7aa 3cbe 5c4d e53c
00000250: 1b51 bdbd 6521 02be e8af 7dbc 818d bbbd
00000260: 8be0 0b3d 968e a7bd 6320 68bd c5c2 65be
00000270: f886 c7bc ce02 23be acb8 13be 8726 633c
00000280: c5a4 d8bb 0249 273d 4469 c2bd 1c61 40bd
00000290: 6193 06be e593 06be dd64 f23b 9d53 03be
000002a0: 65ec c8bd 5a3e d4bd 48b8 0c3c 3660 8ebd
000002b0: f31c 023d ae59 32be 9312 2dbc 39e8 06bd
000002c0: 754b 8ebd f0ad 80bd f57b c0bd 7e42 f93d
000002d0: 479f 70bb f1d1 52bc 8874 07bd cca4 83bd
000002e0: 6c4a 82bd ac87 8c3b 1b62 9c3b b199 6738
000002f0: 55e7 60bd e8fd 89bc 0c24 30be 475d 27bd
00000300: f295 29be b27a 42bd fd26 c9bd f94a 4d3d
00000310: 75f0 89bd 42a4 5abd 3a13 1dbc 826e 33be
00000320: 3923 efbd 4624 523c 81f8 12be 244a 83be
00000330: c16e 8ebd 3403 8bbd 01f8 15be aab7 a3bd
00000340: 14d6 e9bc d661 3cbe 6fb2 8b3d bb23 96bd
00000350: e8eb cbbd a4a2 98bd 9fd4 08be fc80 28be
00000360: 3a67 c9ba 0f7a aa3c b73d 35bd e7a5 663d
00000370: 2763 13be 8d57 babd 7a34 b2bd a8d9 b5bc
00000380: 209d b6bc d518 8dbc 12ec 92bb bd30 8abd
00000390: e7f4 54be eeee c2bd d5bb 0dbe 46b0 3dbd
000003a0: 7e29 1abe e371 1cbe 1a9e 72bd 5d65 6fbd
000003b0: 2704 10be 313a 50bd 4874 60bd 08bc 67be
000003c0: 669e 78be ec7b 05be ba4f ccbd fee2 45be
000003d0: ba9a 97bd 69ae 133c 0757 95bb 244f 34bd
000003e0: 4134 363a 19ab 5fbd 6d11 d4bd 2310 12bc
000003f0: f0a9 7abd 35da c23b 5b56 a5be 1414 f53d
-0.11388273 -0.041682623 -0.16930878 -0.105321445 -0.15734982 -0.15828401 -0.049718156 -0.13481182
-0.033640973 -0.24410094 -0.12005563 -0.06911607 -0.03547532 -0.14301835 -0.026824813 -0.048165556
-0.063267894 -0.05904933 -0.020223416 -0.034810223 -0.22097921 -0.068403825 -0.055789746 -0.11796043
-0.04190355 -0.038328454 -0.14896844 -0.13671255 -0.07973455 -0.13476299 -0.04530019 -0.11399479
-0.19557522 -0.026413241 -0.07371991 -0.07120799 -0.022617832 -0.052533988 -0.13773276 -0.10876574
0.00040168318 -0.18225065 -0.046802968 -0.15509336 -0.090112954 -0.108312 -0.121726915 -0.08797206
-0.22287482 -0.112272784 0.00048043588 -0.19672693 -0.17032883 0.048118517 -0.2118678 -0.08291986
0.029992742 -0.010955794 -0.092067026 -0.093783036 -0.14975062 -0.09716579 -0.057842292 -0.11843192
-0.123666845 -0.13079205 -0.19098416 -0.11438825 0.04679187 -0.10883848 -0.095805764 -0.086768456
-0.09468199 -0.24436867 -0.05108145 -0.14524592 0.10055258 -0.07698582 -0.036487255 -0.07100265
-0.03899712 0.013136224 -0.11461902 -0.094416164 -0.031918306 -0.036398437 -0.066317 -0.21262456
-0.026641 0.015620952 -0.05573303 -0.039481536 -0.118744105 -0.18867914 -0.11672783 -0.043392044
-0.03540795 -0.09114279 -0.062096052 -0.13406363 -0.02946281 0.012092543 -0.12567243 -0.08550917
-0.24204108 -0.08900151 -0.098952964 -0.15092903 -0.15292458 -0.029219452 -0.07779706 -0.11625729
0.0077098375 -0.07480145 -0.07331559 -0.010297787 -0.048612867 -0.09347674 -0.04006662 -0.12821402
-0.15831785 -0.075517535 -0.33030894 -0.052754078 -0.18500905 -0.19804646 -0.08499459 -0.098618865
-0.23181474 -0.07723638 -0.12913743 -0.012114187 -0.063936666 -0.20614505 -0.062727354 0.0009789775
-0.1508572 -0.026656782 -0.09085544 -0.089825064 -0.09541951 0.049388707 0.027197435 -0.4054189
0.040421937 -0.0847148 -0.18424474 0.02799099 -0.09243985 -0.12708052 -0.015483834 -0.09157849
0.034149688 -0.08181493 -0.05667151 -0.2243758 -0.02435635 -0.15919039 -0.14425915 0.013864166
-0.006611439 0.04084111 -0.09492734 -0.04696761 -0.13142158 -0.13142355 0.0073972777 -0.12824865
-0.09810714 -0.10363455 0.008588858 -0.069519445 0.03176589 -0.17417023 -0.0105635105 -0.03293631
-0.06947986 -0.06283176 -0.09398643 0.121708855 -0.003671603 -0.012867437 -0.033070117 -0.06427917
-0.06361851 0.0042886343 0.0047724373 5.5217828e-05 -0.054908115 -0.016844705 -0.17201251 -0.04086044
-0.16561106 -0.047480293 -0.098218895 0.050120328 -0.06735317 -0.053379305 -0.0095871035 -0.17522624
-0.1167664 0.012826031 -0.14352609 -0.25642502 -0.069547184 -0.0678772 -0.14645387 -0.079940155
-0.028544463 -0.18396696 0.06821143 -0.07331034 -0.09957105 -0.07452896 -0.13362359 -0.16455454
-0.0015365847 0.020810155 -0.04424831 0.05631056 -0.14393292 -0.0909873 -0.08701415 -0.022198513
-0.02229172 -0.017223755 -0.004483708 -0.06747577 -0.20796548 -0.095182285 -0.13841183 -0.046310686
-0.1505489 -0.1527782 -0.05923281 -0.058446277 -0.14064084 -0.050836746 -0.054798394 -0.22630322
-0.24279174 -0.13035554 -0.09976144 -0.19324872 -0.074025586 0.009013751 -0.0045574936 -0.044020787
0.00069505355 -0.05460653 -0.10354886 -0.00891498 -0.06119722 0.0059464225 -0.32292446 0.1196672

weight f4 [128, 256]
00000000: 497f bf3c 6c0e c0bb 34d3 923d 2d46 5a3b
00000010: b543 383c ed7a 2b3c 8820 fabc 9c24 a43d
00000020: 8c59 c1bc 3284 6d3d c0ce 163c 324d 5a3d
00000030: 7017 cd39 76be 36bd a3c8 bbbc f73a 5fbd
00000040: 539f efbd dc05 b33c fe8d 91bd 7194 0abe
00000050: e161 59be 6fa2 8d3c b124 b03c 9cdd 9abc
00000060: 4927 883c 7cbf f73d 338e 903d 8e14 1e3c
00000070: b21f b33d d383 c83c 86d8 9abd 4d98 3e3d
00000080: a14e 01bd fee8 84bd 7987 d33c 84d7 053d
00000090: ff4f e4bd 612f 2fbe b400 48be a09d 01bd
000000a0: 9e9a 9ebd c8ad 68be 59a7 abbd 8fa2 fa3d
000000b0: 9ebe 2d3c 0875 183d 72a7 c83d 6333 97bd
000000c0: e685 9abd b6c1 843d a172 023d 399e 93bb
000000d0: 008f f2bc 15e5 35bd 8302 e3bd 0c33 95bc
000000e0: 5845 f2bd b2a3 1ebb d4bf 993c 9825 633d
000000f0: 462a 7bbd ea2c f13c cb1a c03d 2108 a93d
00000100: 8813 6c3d 592b b4bd b935 20bd 2e32 c83c
00000110: f803 fb3b 6a45 4a3d 4316 503d e20c b83d
00000120: ccc0 02be bae6 df3d f743 c8bd 5bfb 01be
00000130: b626 6dbd a83f 0ebe 6d94 e93d 7d30 b3bd
00000140: 35bf 17bd 43d0 823c b09c e4bd 66f4 cdbc
00000150: 5710 19be 6960 d6bb 188d 98bc ff2b 153d
00000160: 4141 fabc 27ba 403d 608e 3c3e 7541 c33d
00000170: 43da f03c 09b3 83bd 6064 6a3c a34e 4b3d
00000180: 8d0d 6abd f8b6 bc3c ec9e 9f3d 1018 1d3d
00000190: 74bf 49be 8083 c63d 1a9a 07bd 0e34 7dbc
000001a0: 64fb b53d 6b02 5dbd 2a46 9cbc c6d4 953c
000001b0: 4c29 2fbc 74fc 0cbe e587 db3c a570 0a3e
000001c0: 5ea6 9fbd 7a4c 543d 15e0 39bd bfea a9bc
000001d0: 3fd4 94bd 7e52 49be 654c 1e3d 818b ae3c
000001e0: 437f 653c ddc1 6c3d eb57 283d 9314 86bc
000001f0: 5d9e 923d 3a04 0f3e 488f 3b3d 7610 e93c
00000200: d894 46bd 503b a83b 3f0a 8bbd 2753 abbb
00000210: b70d 2a3d f224 c4ba ae19 9cbd c34e 68be
00000220: c3d1 48bd 0da3 e13d 29b1 183e d989 663d
00000230: 7eee 3dbc 4bf4 6e3d 56af 9bbd 9bf3 4cbd
00000240: 8706 cf3d 7d37 65bd dab8 8e3d 9e6a d73d
00000250: c00b f8bc 5e30 183d ad1f 5c3d e03e b5bd
00000260: 02eb 8cbd b707 f1bc 39c0 a9bd d714 9cbd
00000270: 1239 a9bd 6239 86bd 9ee8 d7bd f8ca 72bd
00000280: e874 2abd a4f2 91bd 0c75 aabc 3e81 63bd
00000290: 45f1 b73d 6be1 0d3e 22a9 c23d cc31 443d
000002a0: 0834 9c3d 9a51 84bd b972 14be e63f abbd
000002b0: 982c a6bd 2cc5 3dbe 40d6 563c 1dc9 7c3d
000002c0: 7555 a5bd 7c9b 6e3d 5a97 b23d e83e a6bd
000002d0: 9d17 0b3d 3aed 973c e5e1 483d c485 993d
000002e0: b77d bf3d 93b5 9dbd 5367 8a3d bfac 40bc
000002f0: 1b27 f73c 9be7 47be a197 8c3d 418d e83d
00000300: 83e8 ac3d 1e54 4dbe 4f7b 303c 0446 71bc
00000310: 3214 1ebe 6a6a c9bd cb13 233d 6ff8 eebc
00000320: aeb8 b33d 29e2 08bd b195 fbbc d464 9a3d
00000330: 8b1a 5e3d 85b9 cb3d 3756 833d 2d83 c1bd
00000340: efc0 3dbe cfc2 503d b252 13be 7fc6 04be
00000350: 0670 95bd f9ae bd3c 6f28 bd3c 0158 a3bd
00000360: b80f d23c c56a 803a 313c ae3b d657 833d
00000370: 0d9d f63c ba5c e0bd 066f c83d 709d 8c3d
00000380: d63e 853d 2765 4f3d 519a 5bbd 5985 3cbc
00000390: 9f01 0e3e 5e37 f0bd 9d68 033d 8cd2 e0bd
000003a0: 8a24 33bc 8f04 28be 4229 7ebc a6f4 f6bd
000003b0: a084 f4bc 51d4 d83d 13a0 d5bd 3f83 a2bd
000003c0: 6298 393c 67be d1be 2d03 343d 8664 cc3c
000003d0: e3cd 9abd 7cc5 673d 5c2c f83c c79b 083e
000003e0: 80c5 073d 6666 873d a4d6 80bc 6b60 cfbc
000003f0: 5a04 273d 7b04 02be c371 c7bd 23c0 c5bd
0.023376124 -0.005861094 0.0716919 0.0033305988 0.011246611 0.0104663195 -0.03053309 0.08014795
-0.02360227 0.0579874 0.0092045665 0.053296275 0.0003911811 -0.04461523 -0.02292282 -0.054499593
-0.117003106 0.02185338 -0.07107161 -0.13533188 -0.21228744 0.017289368 0.02150187 -0.0189045
0.016620295 0.120970696 0.07058372 0.009648455 0.0874628 0.024476921 -0.0756083 0.046531964
-0.031569127 -0.06489752 0.025821434 0.032676235 -0.111480705 -0.17107917 -0.19531518 -0.031644464
-0.07744335 -0.22722542 -0.083815284 0.12238037 0.010604529 0.037220985 0.09797563 -0.07382848
-0.0754507 0.0648226 0.0318476 -0.0045049456 -0.029609203 -0.044407923 -0.110844634 -0.018212818
-0.118296325 -0.0024206457 0.018768229 0.055455774 -0.061319612 0.029440362 0.0938011 0.082535036
0.057635814 -0.087973304 -0.039113734 0.02443799 0.007660385 0.049382605 0.05080248 0.08986832
-0.12768859 0.109326795 -0.09778588 -0.12693541 -0.057898246 -0.1389147 0.11405263 -0.08749483
-0.037047584 0.015968448 -0.11162698 -0.025140952 -0.1494764 -0.0065422547 -0.018621966 0.03641891
-0.030548694 0.04705253 0.18413687 0.09533969 0.02940095 -0.064306326 0.014306158 0.04963554
-0.05714183 0.023036465 0.07793984 0.038353026 -0.1970194 0.096930504 -0.033105947 -0.015454305
0.088858396 -0.053957384 -0.019076426 0.018289935 -0.010690998 -0.13768178 0.026798198 0.13519533
-0.07795404 0.051830746 -0.045379717 -0.020741818 -0.07267045 -0.19660375 0.038647074 0.021306755
0.014007392 0.05780207 0.04109947 -0.016367232 0.07159112 0.13966456 0.04579094 0.028450232
-0.048481792 0.0051340237 -0.06789064 -0.0052284184 0.041516986 -0.0014964624 -0.076220855 -0.22686295
-0.04902817 0.110174276 0.14911331 0.056283806 -0.0115925055 0.058338445 -0.07601802 -0.050037008
0.10108667 -0.05596112 0.069688514 0.105183825 -0.03027904 0.0371555 0.053741146 -0.08849883
-0.06880762 -0.029422624 -0.08288617 -0.076211624 -0.082628384 -0.06553914 -0.10542415 -0.059275597
-0.041615397 -0.07126358 -0.020807765 -0.055543177 0.089815654 0.13855521 0.09504916 0.047899053
0.07627112 -0.06460877 -0.14496888 -0.08361797 -0.08113974 -0.18532246 0.013112605 0.061715234
-0.0807294 0.05825375 0.08720274 -0.08117467 0.033958066 0.018545736 0.049043555 0.07496217
0.0935015 -0.07700648 0.06757989 -0.011759936 0.030170014 -0.19521944 0.068648584 0.11355067
0.084427856 -0.2005162 0.010771587 -0.014726166 -0.15437391 -0.0983475 0.039813798 -0.029171197
0.08775459 -0.033418808 -0.030711027 0.07538763 0.054224532 0.099474944 0.064129286 -0.09448848
-0.1853063 0.050967034 -0.14387015 -0.12966345 -0.072967574 0.023154723 0.02309057 -0.0797577
0.02564226 0.0009797445 0.005317234 0.06413238 0.030104185 -0.10955186 0.09786801 0.06865966
0.06506126 0.050633576 -0.053613964 -0.011506402 0.13867806 -0.117293105 0.03208219 -0.10977659
-0.010934005 -0.16407989 -0.015512766 -0.12058382 -0.029848397 0.10587371 -0.10430922 -0.079351895
0.011327835 -0.40965578 0.04394834 0.024950277 -0.07558801 0.05658482 0.03029459 0.13340674
0.033147335 0.06611328 -0.015727349 -0.02531453 0.040775634 -0.12697022 -0.09738495 -0.09655788

bias f4 [128]
00000000: 9b17 d0bd d293 9dbd 9239 053e 21ae 493d
00000010: 95e3 debc e1bc a73c 9aac 48bd 02f0 6cbd
00000020: 5395 0bbe 8e33 f6bd e9d4 453d 4190 99bd
00000030: a383 6cbd 8c08 91be 76f5 1abc 3fd7 f3bc
00000040: 35b6 0abd 3cfc e2bc 1957 953d 3585 d6bd
00000050: 3916 ebbd 5a3a 04be 6816 18be b09b 5dbe
00000060: cf8b b5be b516 ecbc 98cf efbd e912 c2bd
00000070: 35f1 d1bd 0009 5dbd f1f1 21be 1d56 86bd
00000080: 7361 9cbd e524 2ebe f975 a6bd 7905 05bd
00000090: 6ee5 1dbd 3110 61bd c706 1fbd f05b 04be
000000a0: bb78 59be ae3b d33b 0731 62bd f496 08bc
000000b0: ea0b 0abe f403 9bbd b90b b43c d3fd 28bb
000000c0: 4553 a63d 7cd6 17be 03e2 b1bc 3517 b0bd
000000d0: 8496 bfbc badf c8bc 014a 80bd 4fd8 e5bd
000000e0: f4cf c23b aadf 40be cae4 18bf b244 f7bd
000000f0: 9af3 6fbe aa2e bebd 3ec4 e8bc 5309 183d
00000100: e56f aabc 9ab1 6cbd 9a49 1e3d b4a9 81bd
00000110: 091c b7bc 137c d1bc a3e1 283e c253 593c
00000120: b9a0 b8bd 62b6 e7bd 68a1 05be 1c92 bbbd
00000130: 20fb f8bd 8659 673d 1588 0fbe 655d abbd
00000140: 2f06 8ebc ab44 0bbe 7aec 28bc 5a1b e6be
00000150: 1580 0f3d d183 a1bd f181 75be 4d27 b7bd
00000160: 3de4 1bbc 3f5b 893d 271d 7d3d 7d09 cb3b
00000170: 634c b0bd de2b 1d3c 441c 9fbb 2f73 69ba
00000180: 8c3a f6bd 0041 eebd e70b c33d 9947 01bd
00000190: 90a0 d43d 4218 c7bd 2a1c c0bd 838c acbd
000001a0: 4cce c53d 4c00 0cbe 484f 8abd 424c d2bd
000001b0: 13c8 47bd f106 f6bc 1e2e 91bd 7ba3 7ebd
000001c0: 6cd9 9dbd 9ced 64bd ae4f b3be dd7d d4bd
000001d0: ac78 e0bd 206a f4bc 1603 2abe 8237 0bbd
000001e0: b32d 2a3b 5475 1ebe c86d 3cbe 9537 2fbe
000001f0: 5317 b1bd 5a79 cebe f257 d8bd 8790 fdbd
-0.101607524 -0.0769421 0.13010243 0.049238328 -0.027208129 0.020475807 -0.04899273 -0.057846077
-0.13631181 -0.12021552 0.04829875 -0.074982174 -0.057742726 -0.28326833 -0.0094579365 -0.029765723
-0.033865172 -0.027708165 0.07292003 -0.10474626 -0.11478848 -0.12912884 -0.14852297 -0.21641421
-0.35458228 -0.028819421 -0.11709517 -0.09476263 -0.10251085 -0.05396366 -0.1581495 -0.065593936
-0.076357745 -0.17006262 -0.0812797 -0.032475922 -0.03854888 -0.054947082 -0.038824823 -0.12925696
-0.21237461 0.0064463234 -0.055222537 -0.008336771 -0.13481107 -0.075691134 0.021978246 -0.0025786057
0.08121351 -0.14827913 -0.021714216 -0.085981764 -0.023387201 -0.024520744 -0.06264115 -0.11222898
0.0059452 -0.18835321 -0.59724104 -0.120736495 -0.2343277 -0.09286244 -0.028413888 0.037118267
-0.020805309 -0.05778656 0.03864441 -0.063311964 -0.022352235 -0.025571859 0.16492324 0.013264598
-0.090150304 -0.11314084 -0.13049853 -0.091587275 -0.12157273 0.05648186 -0.14016755 -0.08367423
-0.017336933 -0.13600414 -0.010310287 -0.44942743 0.035034258 -0.0788647 -0.2397535 -0.08943043
-0.009514865 0.06706857 0.06179538 0.0061961995 -0.086083196 0.009592978 -0.0048556644 -0.00089054083
-0.12022886 -0.116334915 0.095237546 -0.03156242 0.10382187 -0.09721424 -0.09380372 -0.08425238
0.09658489 -0.13671988 -0.06753403 -0.10268451 -0.04877479 -0.030032607 -0.07088874 -0.062167626
-0.077074856 -0.055890664 -0.35021728 -0.10375569 -0.10960516 -0.02983576 -0.1660274 -0.033988483
0.002596718 -0.15474445 -0.18401253 -0.17111047 -0.08647027 -0.4032696 -0.10563649 -0.12381082

weight f4 [12, 128]
00000000: 3d45 00bd b7cf 073d 3d41 bfbc c858 dd3d
00000010: 761f 3b3c 8106 c7bc f287 3fbb d6bb 55bd
00000020: b5ca 3e3d 7d59 273a 19b9 2dbc c51f 9c3d
00000030: 15d7 8e3d 1f71 3dbe 47d0 7b3d 1ffb ddba
00000040: 44ef c2bd ed7a 943d cf35 84bc 78e3 cabc
00000050: b011 27bd 63c0 93bd c21b dc3b d260 26be
00000060: d0c4 ac3c e4e9 cdbc 8dfd b8bc f84b 593c
00000070: 1817 52bc fde6 4fbc d646 343d aacf 4a3c
00000080: 3542 093b a6a2 203d f2c1 a6bc dd43 8d3d
00000090: f780 89bc 913c 6a3b 65bc 34bd a939 23bd
000000a0: c7e3 b53b 8286 2a3d 1a94 da3b 908b 853d
000000b0: b932 b5bc 9d8d 08bd 57c2 a33c a9a5 05bc
000000c0: a408 063c 1eac 273d 242b f9bb 70e6 c2bd
000000d0: 3da7 c93a 4fca 5f3c e6c7 313d 5452 6b3c
000000e0: a4e5 76bc 6a21 1cbd 9dfb 48be 15ff 43bc
000000f0: 49d0 4abd 2923 4b3c bf74 48bc 5e4f 463d
00000100: 4a21 23bd 8c48 abbd 4ac4 393c 6b20 453c
00000110: 2072 233d cf5f 28bc 1eed 143c 070e 05bd
00000120: 1c63 333d 04fe 8ebc a19f d93c fc43 963d
00000130: 22c9 993b 5221 1a3d df40 46bc bf29 80bd
00000140: 8e66 ad39 e68c 0bbc 1871 3a3b 74a7 e8bd
00000150: ae44 f23c 2005 48bb 48d6 c3bc 0d01 c2bc
00000160: 2dde c43c 3704 803c 40f1 2cbc 5fbd 733d
00000170: 117c 8cbc 0771 58bd ec09 a03c cfd1 0b3e
00000180: bce5 63bd 1c67 a53d 1d1f c33d 7b73 84bd
00000190: 8251 c2bb 39f6 12bc dc9a a53c 4d2a 04bd
000001a0: ffdf 2bbd 900d 2fbc e513 a53b bbb0 a13a
000001b0: 7528 d93c 5713 82bc e6ae 85bb 590e 983d
000001c0: a0bd cebc 2a1f 7a3c 335d 00be 41f6 82bd
000001d0: ecc3 0fbc f3f7 143d 64de 723c cc94 33bd
000001e0: 0475 893c 00c4 bfbc 922a babd b3f5 733d
000001f0: 709c e6bc 3303 7cbc 06f1 efbc c54b 1dbc
00000200: 56f2 eb3b 98ca 50bb 1bb2 a73c 7327 eb3d
00000210: 23f1 77bd b295 6dbd 91e1 38bd be29 563d
00000220: 1f51 b33d cc6a 29bc db02 9cbc da1f a2bc
00000230: b776 9bbd bd77 12bc 6677 a8bc 3b02 a03b
00000240: 090a f93d 2dfd 53bd 8802 dfbc e6fa 8e3d
00000250: 60d8 313d b36b bdbc 47e7 dd3c 76e0 d43c
00000260: 7e40 a2bd 1e78 3c3d d003 edbb ba0b 5bbd
00000270: 8cc8 913a fa23 fabc cbd0 363d e6bc bcbd
00000280: 55c8 af3c 0081 a6bd 7eb5 2e3b f59a 533c
00000290: 16f2 b83b 9a57 553d 2e3d 8fbd ef92 933d
000002a0: 0777 39bc 22a4 503d d4a6 2cbd bbb4 233d
000002b0: 8c8b be3c b949 813d f1f8 363d ae72 f5bd
000002c0: b161 9ebd 130b 90bc dfcc cabc 20d4 11bd
000002d0: c6eb 0b3d 65e0 f63b 9a84 7a3d 1891 aa3c
000002e0: 8c1a debc 488a 393d d60d eabd 03fa 593b
000002f0: e616 f2bc e56d 6abd 1bca e539 52eb 38be
00000300: 137a 8dbd 75cd 2f3c bc2d 833c b4a5 31bd
00000310: 8ada 923b 4b80 00bd 1f9a 35bd 8a8a 603d
00000320: 6b95 71b9 6b68 8abd 0830 77bd 44a2 893d
00000330: 6988 0ebc 9a93 21bc d9fe 73bb ac40 1d3d
00000340: 5fd3 003d 421f b73c 1b36 623d c1c4 2a3d
00000350: 4afa 7fbd 5fa0 8cbd a5a2 a03d 3c35 abbc
00000360: 08a0 243d 137b 10bd 16f7 163d 9b88 b63c
00000370: 4ed4 b0bd 8e8a 8d3c 31c9 64bd a7fd 24bd
00000380: 4999 a8bc 3292 25bd 8233 7ebb a3d3 7a3d
00000390: f043 603d 34ae 823d fd88 473d 993e a13d
000003a0: 945d 343d e200 9d3c 6048 943c ed83 0d3d
000003b0: 6cca 9ebc 1867 6b3b a3c4 56bd cf69 eabc
000003c0: 8c32 2cbc 1ff6 193d 9a8b 923d 95ec 5e3d
000003d0: 13c8 193d e74c 2fbd 6a8b 153d 3d4a 223d
000003e0: 4ac4 a1bb cb1d ac3d 7aae 993d ff12 df3d
000003f0: ddbd 19bd 6aff 253c dc8d 5c3d 3a22 ed3c
-0.03131603 0.033157077 -0.023346538 0.10807949 0.011421075 -0.024295093 -0.0029225317 -0.052181087
0.046580035 0.0006383879 -0.010603213 0.07623247 0.069746174 -0.18500184 0.061477926 -0.0016935802
-0.095182925 0.07250009 -0.01613894 -0.024766669 -0.040788352 -0.07214429 0.006717176 -0.16247872
0.021089941 -0.025135942 -0.02258184 0.013262741 -0.012822889 -0.012689349 0.044012867 0.0123786125
0.0020944003 0.039217614 -0.020356152 0.068977095 -0.016785128 0.0035741667 -0.04412498 -0.03984991
0.005550835 0.041632183 0.006670487 0.0652076 -0.022118913 -0.033338178 0.01999013 -0.008157172
0.008180771 0.040935628 -0.0076040197 -0.09516609 0.0015384924 0.013659074 0.04340353 0.01436289
-0.015069399 -0.038117804 -0.19627233 -0.011962672 -0.049515042 0.01239852 -0.012234866 0.048415534
-0.03982667 -0.083634466 0.011338303 0.012031655 0.03990376 -0.010276749 0.009089736 -0.03248408
0.04379569 -0.017455108 0.026565375 0.07337186 0.0046931664 0.037629433 -0.012100427 -0.062579624
0.0003307354 -0.0085174795 0.0028448757 -0.11360064 0.029573765 -0.0030520633 -0.023905888 -0.023682142
0.024031723 0.01562701 -0.010555565 0.05950677 -0.017149003 -0.052842166 0.019535981 0.13654254
-0.055639014 0.08076307 0.09527419 -0.06467339 -0.0059301266 -0.008969837 0.020215444 -0.032266904
-0.041961666 -0.010684386 0.005037772 0.0012335995 0.02650855 -0.015878363 -0.0040796874 0.074246116
-0.025236905 0.015266219 -0.12535553 -0.063946255 -0.008774739 0.036369275 0.01482353 -0.043843076
0.01677943 -0.02340889 -0.09090151 0.05956049 -0.028150767 -0.015381622 -0.029289734 -0.009600584
0.0072005196 -0.0031859037 0.02047067 0.11482134 -0.0605327 -0.05800409 -0.045136992 0.052285902
0.08755707 -0.010340404 -0.01904433 -0.019790579 -0.075910024 -0.008939681 -0.020564746 0.0048830784
0.12160117 -0.05175512 -0.027222887 0.06981449 0.043419242 -0.023122644 0.02708782 0.025985938
-0.07922457 0.04601299 -0.0072331205 -0.05347798 0.001112239 -0.030534733 0.044632714 -0.09215717
0.02145783 -0.081300735 0.002665847 0.012915363 0.0056440933 0.052085496 -0.06994091 0.0720576
-0.011319882 0.05093778 -0.042151287 0.03996728 0.0232599 0.063128896 0.044671003 -0.11984764
-0.07733477 -0.017583406 -0.024755893 -0.03560269 0.034160398 0.007534074 0.061161615 0.02082114
-0.027112268 0.04529789 -0.1142842 0.003326059 -0.029551934 -0.05723371 0.00043828864 -0.18058518
-0.069080494 0.010730137 0.016013019 -0.043370917 0.0044816183 -0.03137235 -0.044336434 0.05481962
-0.00023039214 -0.067581974 -0.06034854 0.06720403 -0.008699515 -0.009861851 -0.0037230758 0.038391754
0.03145158 0.022353772 0.05522738 0.041691545 -0.062494554 -0.06866526 0.07843522 -0.020899408
0.04019168 -0.035273623 0.036856733 0.022281935 -0.08634244 0.017277982 -0.055855934 -0.040280964
-0.020580905 -0.040422626 -0.0038788025 0.06123699 0.05475229 0.06380883 0.048714627 0.07873268
0.044034556 0.01916546 0.018100917 0.034549642 -0.019383632 0.0035919603 -0.05243362 -0.028614907
-0.010510098 0.037588235 0.07155533 0.05442484 0.03754432 -0.04279795 0.03650991 0.03962158
-0.0049367296 0.0840412 0.07503982 0.10892295 -0.037534583 0.010131696 0.053846225 0.028946985

bias f4 [12]
00000000: 999f 9c3e fdda 4abe 8d65 94be 19f8 953e
00000010: 2948 033e 826b c83d a7c6 1ebe 8919 0dbe
00000020: a0c5 d33d 2944 f8bd d3a8 da3e 8266 02be
0.30590513 -0.198101 -0.28983727 0.29290846 0.12820496 0.097861305 -0.15505467 -0.13779272
0.10340428 -0.121223755 0.42706928 -0.12734416
